artifacts/models/node2vec/model_node2vec_07-26-2023-22-15-48.pt (torch, 6652 bytes, 1 tensors)

embedding.weight f4 [469, 3]
00000000: a387 973d eef8 50be d3e3 87bf 02e1 e6bc
00000010: 3ccf d2bd 73a9 893c 7ab2 933e 4717 b73e
00000020: 87e8 cdbd 04f1 2d3e 81b0 bb3c 238a 34bf
00000030: 22bd 163f e2ad df3e d7c6 953f 91ea 503e
00000040: ec0d f83d 2bde 79bf 1c4c 0ebe 655e 39bf
00000050: ef4f 58be 1c10 f5be 0f18 123d 7554 053e
00000060: 1563 a53c eb1d b03d 2b3b 45bd d068 2f3f
00000070: 7e62 6a3e 59d3 e9be f7c5 dbbe f40a fa3e
00000080: 4ec5 883d 5f85 2fbd 5a5b 7c3f 8c55 173f
00000090: fed0 84be 1b14 a2bf 716e b33e f444 d43d
000000a0: 5653 81be c89e 6c3e c182 103d e8ce 903f
000000b0: c305 9bbe e574 4e3e 93ef 8b3e 9d1f 613e
000000c0: 6965 003e 8428 9abe ceb9 3e3f 48b2 1e3e
000000d0: 6740 acbc dabe fe3c 585e 693f 75d8 5cbf
000000e0: 399e 40be 34c6 a83e bc41 54be cfcc 54bd
000000f0: cf02 343e 7b5e 80be 8d3e dd3d 6914 61bf
00000100: 49f3 933e 4217 63bf 7071 4bbe 88ac c13b
00000110: 1e68 3cbe f996 853f 40aa eb3e 6051 dabc
00000120: 60ac 763e d6ec e03e bdd8 1b3e 6ca2 e63e
00000130: d020 7cbe 8e05 163e 44f5 4dbe f55f 203e
00000140: deeb 96be 94f3 24be 83c4 15be a810 293e
00000150: 6cdc a83d aed3 6f3e a077 a3be 9611 533f
00000160: cc6e 003d 2804 53be 8762 0d3f 6a2a aebd
00000170: 1ac5 b13b fbf2 893e acaf 503e 7afb 20be
00000180: ad36 98bd ac97 84bb 1e27 143f ad64 c6bc
00000190: 9184 4d3f 32b3 9cbd 3bdb 5cbe 9fb2 f03d
000001a0: 023f ccbe 95c8 933d c163 c7be 4a07 78bf
000001b0: bdaf f83e 429f dabd 8150 f53e 697f 1cbf
000001c0: 6565 783f e203 693e f62e 233e adbb 8f3e
000001d0: 4e81 ec3d 69e3 013f 482e 693e 732a febe
000001e0: dfe6 51bf 6738 90bd c157 0cbd 2935 ba3e
000001f0: 81b9 203e d50a 693e 1f84 683c ef56 103e
00000200: 46e3 2fbe 907a 423f 0fdc 6b3e 9a58 c3be
00000210: 2aff 5d3e cbea 89bd 9254 cdbc ae56 af3e
00000220: d071 5f3c b7c7 cd3e 5db1 19bf dba2 5cbf
00000230: 729a 6d3e 27c3 4abe 8566 003f b229 23bf
00000240: be88 b73d 2093 ecbe 6558 24bf a85b 863e
00000250: 47fe 073e a41b 9cbe 1937 aa3e 0432 6e3f
00000260: 62b0 e4bd 80e8 1e3f a16e ba3d 0b68 50be
00000270: c739 d93e 71dc a2be 4211 15bf 934f 373e
00000280: 76e0 ba3c 21b5 3ebd 815c 823e ef17 343e
00000290: 0c91 1b3f c7b3 2f3e 51cb 903e d856 57be
000002a0: 2a6b c63d 5181 fbbe 7283 ff3e 4efc 403f
000002b0: e3f0 20be d677 9bbe 0098 2738 eff4 67bd
000002c0: bd06 223f e52f 203f 52dc 143e 094c 8b3e
000002d0: 10d1 2f3e 8c6d 22be 15ef 973f 384a 9a3e
000002e0: 6efd 9dbd 4723 3dbf c8d5 25bd 6b74 f83e
000002f0: d0d9 293e f598 0d3f d75d f53e 1e38 a73e
00000300: 270a 263e 5381 a03e 88fd 263f 33d8 8c3e
00000310: 607d 20be 9d15 20bf 4b30 ca3e 73e1 223f
00000320: a680 69bf 2651 1fbe 95a2 1c3f 4223 1e3e
00000330: 6c2b ae3e 210f 2f3f a54f 48bf f759 4abf
00000340: e76c 2b3f 5d1c 9cbf 0aba fe3c 6112 f33e
00000350: 657a c53e bd45 02be 849e 433e 52f1 4cbe
00000360: 786b c23b 1d3a 963e fae3 4dbd 76a8 a33e
00000370: 68ad 4cbf fb0c 9d3e 6855 5e3f a9ee 6fbf
00000380: 8b68 963e 1b1c 393e eeaa 35be 4f9e f5ba
00000390: 285d ca3b 83cd 92bd 3a16 ab3e a3e5 0b3e
000003a0: cc6c b0be 6ec2 5c3e 7126 2b3e ba48 be3d
000003b0: dacd 97bd a3bb c93e 747b 7c3d bdf4 a5bd
000003c0: 1745 70be d2fd e4be 3801 bebd 8685 d03e
000003d0: fee0 8ebe 5ffa b23e 595e 19bf a5c7 043f
000003e0: f14c 1cbf 2df2 ca3e 3b45 e93e 9c85 d03e
000003f0: 9e20 803d 760d f83e 0042 c33e d54a 1f3f
0.073989175 -0.20407459 -1.0616401 -0.028183464 -0.10293433 0.016804432 0.28847104 0.35759947
-0.10054117 0.16986471 0.022911312 -0.7052328 0.58882344 0.4368735 1.1701306 0.2040198
0.121120304 -0.97604626 -0.13896221 -0.7240966 -0.21124242 -0.47863853 0.035667475 0.13020499
0.020188848 0.085994564 -0.04815213 0.68519306 0.22889134 -0.45669058 -0.42924473 0.48836482
0.06678258 -0.042851802 0.9857689 0.5911491 -0.25940698 -1.2662386 0.35045198 0.10364714
-0.25258893 0.23107445 0.035280947 1.1313143 -0.30277833 0.20161779 0.27331218 0.21984716
0.12538685 -0.30109036 0.74502265 0.15497696 -0.021026803 0.031096864 0.9115958 -0.8626779
-0.18810357 0.32963717 -0.207282 -0.051953133 0.17579196 -0.25072083 0.10802946 -0.8792177
0.2889655 -0.88707364 -0.19867492 0.00591046 -0.18399093 1.0436698 0.46028328 -0.02665013
0.24089193 0.4393069 0.15219398 0.45045793 -0.24621892 0.14650556 -0.20113093 0.15661605
-0.29476827 -0.16108543 -0.14625745 0.1651026 0.08245167 0.23420593 -0.31927204 0.8244871
0.031355664 -0.20607054 0.55228466 -0.085041836 0.0054251077 0.26943192 0.20379514 -0.1572093
-0.074323036 -0.004046401 0.5787219 -0.024217928 0.80280405 -0.07651366 -0.21568005 0.11752819
-0.3989182 0.07215992 -0.38943294 -0.9688612 0.48571578 -0.10674907 0.47912982 -0.6113191
0.97029716 0.22755387 0.15935883 0.28072873 0.115481004 0.50737625 0.22771561 -0.4964176
-0.81992906 -0.07042008 -0.034263376 0.36368683 0.15695764 0.22758038 0.014191656 0.14095663
-0.17176542 0.75968266 0.23033164 -0.38153535 0.21679369 -0.06734236 -0.02506474 0.3424582
0.013637975 0.40191433 -0.6003626 -0.86186 0.23203447 -0.19801007 0.5015643 -0.63735497
0.089616284 -0.46205997 -0.6419738 0.26241803 0.13280593 -0.30489838 0.3324516 0.9304507
-0.11166455 0.62073517 0.09103132 -0.20352189 0.42426893 -0.31808808 -0.5822946 0.17901449
0.02281211 -0.046559457 0.254612 0.17587255 0.607682 0.17158423 0.28280118 -0.21029222
0.09688409 -0.49122098 0.49904972 0.75384986 -0.15716891 -0.30364865 3.9957464e-05 -0.05663007
0.6329153 0.6257308 0.1453717 0.27206448 0.17169595 -0.15862101 1.1869837 0.3013475
-0.077143535 -0.73881954 -0.04048708 0.4852632 0.16586995 0.5531152 0.47923157 0.32660002
0.1621481 0.31348667 0.6523061 0.27508697 -0.15672827 -0.6253298 0.3948997 0.6362526
-0.91211927 -0.155583 0.6118558 0.15443137 0.34017503 0.6838246 -0.7824653 -0.79043525
0.66963047 -1.2196156 0.03109457 0.4747496 0.38569942 -0.12721916 0.19103438 -0.20013931
0.0059332214 0.29341212 -0.050266244 0.31964463 -0.79952097 0.30673966 0.8684907 -0.9372354
0.29376635 0.18077128 -0.17740986 -0.0018739196 0.006175656 -0.071681045 0.33415395 0.13661818
-0.34458005 0.21558544 0.16713883 0.09291215 -0.0741231 0.39400968 0.06164117 -0.08103321
-0.23463856 -0.447249 -0.09277576 0.4072687 -0.2790603 0.34956643 -0.5990959 0.51867133
-0.61054903 0.3963789 0.4556063 0.40726936 0.06256221 0.4844777 0.38136292 0.6222356
