artifacts/models/node2vec/model_node2vec_07-24-2023-20-16-00.pt (torch, 241148 bytes, 1 tensors)

embedding.weight f4 [469, 128]
00000000: e842 acbe 02d2 b93e f597 e2bd 6cb8 41bf
00000010: d5f0 923d 419c 01be d6b9 193f b1ea 01be
00000020: 2f05 adbf c3ae 5abe 7b38 c93e ac8b 0d3e
00000030: 3b2c 1abd 5bb7 97be 1729 57bd 6d6f 4ebc
00000040: 5310 32be 075f c53c b557 62be 1319 71bd
00000050: cecf 3e3e dce7 eb3d a801 063e 53e7 bb3e
00000060: c2ae 91bd fc83 bc3e 0fd9 863d 489e 533f
00000070: 7e39 22be 968a 86bd 3103 2a3d 0f9f 3b3e
00000080: d8ff 17bd 802b d6bd 226a ec3e 390d 963d
00000090: 0a58 97be 40ae 083d 274e 143e 72c7 963c
000000a0: c7f0 b4be 4ffb 5dbe 505a 0a3e d3f1 6ebe
000000b0: 08c6 3dbe a885 79be 9188 873d 1b2d 893d
000000c0: ec37 1d3d f47e ccbe f414 9ebc 788f 0dbe
000000d0: 57bc 0cbe 7a21 6c3c f67b e3bd 7620 7838
000000e0: 132e f8be 11cb 33be 2698 533e 4a49 f53c
000000f0: 3649 6dbd ad24 e63d b776 c1be a85f 44bd
00000100: 913f c2bc d2e5 aebe e0f8 7e3e a8c1 693e
00000110: 0766 ce3e 9643 573f cd5b 4dbe 813f 653e
00000120: e3e3 ee3e 63e6 77be 92ce c33d 58b1 24be
00000130: 8653 a0bc bd89 d6bd e21d fabe 52d7 8f3e
00000140: e648 8d3d 0872 e83d 3604 8cbd 35bf e93c
00000150: fa72 023f 8690 f63e 5296 c7bd b26f cbbd
00000160: a1b7 f33d 0a33 533d 2671 ffbd 94f9 15be
00000170: 93be 43be ca28 7a3d 707c a4bc 087a 2fbf
00000180: f0f2 703f dc53 d63e de1e 093e e24e 703e
00000190: d04d 0d3e 353f 8d3d 1130 4fbe f6a3 a0bb
000001a0: 615a 2cbe 50fb 10be a8ea 21be d278 813e
000001b0: 0f19 b73e 0025 2b3e 4a7b 0a3e 562d 343e
000001c0: 322f 1cbe 05d4 fabc 07e5 143e 44d5 3ebe
000001d0: cb99 c1bd dade 77be 22b1 6b3e 0cd0 03be
000001e0: 53c3 24be cc66 e1bd a4ec 283d c73b c4bd
000001f0: d370 9fbe 945b 9d3e 6a02 48be e4a3 a03d
00000200: e11e 0ebd c019 6ebe a8e0 c2bb 385e 373c
00000210: d782 a9bd 00e8 233e 4da3 dc3c 2c57 f2bc
00000220: 3eb7 81bf e03f 83be db73 a43e 5cb2 5b3e
00000230: 10a1 a03c b8cb 313e 462a a6bd 8c75 4dbc
00000240: fbbe a33e 3cea 8b3c 4d19 85be 7f8c d63d
00000250: 49a0 093e b868 8abd b18f 1dbd 5213 a9bc
00000260: 2231 3f3c 242e 8cbd cda9 1c3e c755 f0ba
00000270: ee81 013e 03a1 be3d b649 513e 85a6 3f3d
00000280: 90f8 423d aa48 a23e c6eb 1dbc 0b78 0f3f
00000290: 8b84 dbbe 9704 933e 5871 bfbd bcde 2cbe
000002a0: 2312 17bd ebd5 37bd 583f fdbd dbc8 463e
000002b0: ef32 9bbd dc49 74be 3550 343e b106 a83c
000002c0: b881 e2bd 0d6e e63d 08a8 aabd 0bfe 2abd
000002d0: e9cb 85be ad69 993d 277c 6b3e 1295 efbd
000002e0: 20b2 083e 58e7 493d 6669 483d 5846 12be
000002f0: 4830 11be f00b d8bd e90f 3cbe 9e45 5c3d
00000300: 744f 433e addd 023d 9598 1fbe 3a09 563c
00000310: 7ae9 75bd 840a eebc 307f 61bd 975b 89bd
00000320: a9c3 4f3e d8db 18be 41ea 6b3e 8f24 8abd
00000330: 07be fe3a c16e 733e f80e 8c3d 76d2 b83d
00000340: df56 483e b574 cebd ae4b 8a3e eb58 31be
00000350: ae58 643e 7784 6dbd 0c7f 89be b052 d63e
00000360: f575 a43d aa2c 0fbe 07bd 033e 35be 913e
00000370: 5a81 8c3e 5b62 963d 760d c23d e475 16be
00000380: 87f1 babe 3929 c1bd a017 6abd 90a1 7e3f
00000390: 1436 e8bb 0a90 5dbe 60b0 3bbe b37e 6bbe
000003a0: 14db 4e3c d44c 95bd 2de5 3dbd 3c56 053d
000003b0: 0a51 963c 0155 50be 3a68 4ebd fddd f53d
000003c0: 187e e8bd 93e2 f73d d1e6 713d c110 16bd
000003d0: 2374 6ebd f76d 883e 5f52 493b 87c8 ac3d
000003e0: 20a7 2d3e 9038 b0bc 296d cb3d 15e5 103e
000003f0: 9844 94be 9960 b83e 8f42 a9bd f796 2dbd
-0.33644795 0.36293036 -0.1106414 -0.7567203 0.07174841 -0.12657262 0.6004919 -0.12687184
-1.3517207 -0.21355729 0.39300904 0.13822812 -0.037639838 -0.29632077 -0.05252942 -0.012599808
-0.1738904 0.024093164 -0.2210377 -0.058861803 0.18633959 0.11518833 0.1308657 0.36699924
-0.071134105 0.36819446 0.065843694 0.82663393 -0.15842244 -0.06569402 0.04150695 0.18322395
-0.037109226 -0.10457516 0.46174723 0.07326741 -0.29559356 0.033369303 0.14482938 0.01840565
-0.3533995 -0.21677898 0.13511014 -0.23334436 -0.18532574 -0.24367392 0.06617845 0.06698056
0.03838341 -0.39940608 -0.0192971 -0.1382426 -0.13743721 0.014412278 -0.11107628 5.915804e-05
-0.48472652 -0.17557932 0.20663509 0.029942174 -0.057931148 0.11237464 -0.37785885 -0.047942787
-0.023711951 -0.34159714 0.24899626 0.2282778 0.40312216 0.840875 -0.2005455 0.22387506
0.4665824 -0.2420898 0.095608845 -0.16083276 -0.019571077 -0.1047549 -0.48850924 0.28093964
0.0689867 0.11349875 -0.06836741 0.028533557 0.5095669 0.48157138 -0.09745468 -0.099334136
0.11900259 0.051562347 -0.12472753 -0.14645988 -0.19115667 0.061074056 -0.020078868 -0.6854558
0.94120693 0.41860855 0.13390681 0.23467591 0.13799214 0.068968214 -0.2023318 -0.004902358
-0.16831352 -0.14158368 -0.1581217 0.2528749 0.35761306 0.16713333 0.13523594 0.1759542
-0.15252379 -0.030618677 0.14540492 -0.18636042 -0.09453162 -0.24206105 0.2301679 -0.12872332
-0.16090135 -0.11005935 0.041241303 -0.09581714 -0.31140766 0.3073393 -0.19532171 0.0784376
-0.034697417 -0.2325201 -0.0059471913 0.011191897 -0.08276909 0.1600647 0.026933337 -0.029582582
-1.0134046 -0.2563467 0.3211964 0.21454757 0.01960805 0.17362869 -0.08113532 -0.012540232
0.31981644 0.017079465 -0.25995865 0.10476016 0.1344005 -0.06758255 -0.038467113 -0.020639095
0.011669429 -0.06844738 0.15299149 -0.001833611 0.1264722 0.09308054 0.20438275 0.046789665
0.04760033 0.31696063 -0.009638732 0.56042546 -0.4287456 0.2871444 -0.093477905 -0.16881841
-0.03688253 -0.044881742 -0.123655975 0.19412558 -0.07578074 -0.238563 0.17608722 0.020511003
-0.11059898 0.11251459 -0.08332831 -0.04174618 -0.26132134 0.07490859 0.22996579 -0.11698355
0.133492 0.049292892 0.04892864 -0.14284647 -0.14178574 -0.10549152 -0.18365444 0.05377733
0.19073278 0.031949688 -0.15585549 0.013063723 -0.060037114 -0.029057749 -0.055052936 -0.067069225
0.20289482 -0.14927614 0.2303858 -0.06745254 0.0019435295 0.23772718 0.068387926 0.09024517
0.19564389 -0.10080854 0.27010864 -0.17319076 0.22299454 -0.057987656 -0.26854742 0.4185996
0.08030311 -0.13981882 0.12865077 0.2846543 0.27442437 0.073429786 0.09475224 -0.14693409
-0.36512396 -0.09431691 -0.057151437 0.99465275 -0.0070865247 -0.21636978 -0.18329 -0.2299755
0.0126254745 -0.072900444 -0.046361137 0.032552943 0.01834919 -0.20344926 -0.050392367 0.120052315
-0.113521755 0.121037625 0.059058014 -0.03663707 -0.058216225 0.26646397 0.0030719263 0.08436685
0.16958284 -0.021511346 0.0993293 0.14149888 -0.28958583 0.36011198 -0.08264648 -0.0423803
