artifacts/models/node2vec/model_node2vec_07-26-2023-22-13-48.pt (torch, 8508 bytes, 1 tensors)

embedding.weight f4 [469, 4]
00000000: 3144 95be 17b5 b93e a344 093f 215d 8fbc
00000010: ff59 75bd c030 f53d 9c3d b93e 4df3 39bf
00000020: d5c3 ad3d a7f8 313f 04c0 aabf 7bac 9f3c
00000030: 2924 223d c162 853d 324e b53e fbbe fabd
00000040: 9921 dd3e 582b bfbf 967a 54bf 1af5 d3be
00000050: 8897 ad3d d2d1 233f 8c88 4b3f 46b7 c13f
00000060: a187 5d3e 9bdd 463e a0ab 4fbe d7df f3bd
00000070: 488e c53e 44e8 893e eec5 33bf abd1 753f
00000080: 8c94 b43e 36fd e83d 13f9 a13e 2666 183d
00000090: a2bb d83e ad1b f1bc 3ab7 e1be ff16 78bc
000000a0: 4728 11bf e1c8 e4be ed75 023f 30d2 64be
000000b0: ae95 30be 6b41 1e3f 6c6e acbe ae26 023f
000000c0: 84f4 20be a6e4 ac3c 4c6d 413e 23da e83d
000000d0: a3e0 373f 498c 1c3f 5c9e 14bf d461 c5bd
000000e0: 6934 243f 268d d0bf 1940 17bd dea2 cc3d
000000f0: 299a 563e f844 cc3e 6c00 f03c c70e d23d
00000100: cda3 50be df06 a4be f0ec 81be 5371 e6bd
00000110: 10bb 52bd 12ea e73e 126f 583e 8cc5 c3bd
00000120: f1a8 3c3e f4be 963c e9da c7be 52c7 75be
00000130: 05c8 dfbd 3dfa 22bf e063 4b3c bbfa 9abe
00000140: 5396 15be 1a4e d03e 20e7 793e 9338 8ebd
00000150: ea2d 4ebf 25c8 3abf 25ec 503d 64d8 0dbf
00000160: ecca 193e 11f6 993e a9c2 113f 6944 67bd
00000170: d016 bc3b 4939 cfbe c961 9a3e c8bd 8bbf
00000180: 3e0c 9cbe d6be 653d 65ba 10bd 9576 98be
00000190: 9a1b 11be e091 0d3f f5c6 35be 7bd9 d73e
000001a0: c419 6fbd b7ae ae3f 3b08 643e d901 33bc
000001b0: 8258 9e3c 571b d63e 18b3 1a3f 53da 12bf
000001c0: fbd5 6a3e 13b7 76bf 15a6 91bd 7b59 70be
000001d0: 8f49 5f3e 8d05 c03e b544 33bf c9be 7bbe
000001e0: fcb5 213e 9a95 2fbe 4310 05bf d324 2abe
000001f0: 07bb 8cbe 91af c63d fbb6 843f f712 e33c
00000200: 41de bc3e 3fe6 1d3f 941d a13e f9fa 123f
00000210: 2405 0f3f f317 5c3e b562 4a3e 9e96 353b
00000220: 624e 053f 73cc 573e bf58 a13e ee92 163d
00000230: ce9b 9b3e f3fb f03e 7a73 a13e f73c 033f
00000240: 1326 b3be 640e 083f 105f 9e3e a730 f4bc
00000250: 646f 19be 0663 d33e deb6 a83c 533c 013d
00000260: 21d4 6e3e 6426 eb3d 6563 3a3e c1bb b7be
00000270: 4d96 1b3f be0f 0e3b 4efe a73e e36e 373e
00000280: fcdd 89be 8f39 9e3e 3f59 ca3d 8953 4dbe
00000290: 3a9a 4dbe 979b 34be 397f 45bd 85f2 d7be
000002a0: 353d b63d 3114 c23e d1d9 863e 02de 81bd
000002b0: 3d97 0e3e b610 c4bc 9b2b 1f3e bbbf 4fbe
000002c0: 1a8c d83f 8633 4f3f fa2b 20be da11 53bd
000002d0: 02c0 f53e ba77 d23e c66a 213d 7765 1e3e
000002e0: d1dc 853f 1df4 593d 2117 973e 680e ed3e
000002f0: fb1f 8bbe 087c acbe 14c8 e13e e014 51be
00000300: accb 45be 303d ec3e c851 9a3e a30a b93d
00000310: 59c2 4e3f e9dc 8d3e db72 cebd f4de 4cbf
00000320: aef1 e93e 278b bf3e ce14 2abf f786 babe
00000330: 1082 013f 433b 433e 1266 bd3e 860b 0cbf
00000340: 0364 153f 5eeb 3c3e 7139 1f3f 3ebb 263f
00000350: 635a eb3c 35e2 2c3f 01db 7d3e 44af 403f
00000360: 5163 323e cc14 113f 1e80 013e 5536 313f
00000370: b4fe 963c 5199 013f 1621 46bd b6fd e6be
00000380: 663b 66bd aef8 37be 3523 ae3e 725d 24be
00000390: cd1e 22bd e222 9c3e 548d a3be bd38 d6bd
000003a0: f859 813d db5e 073f 06a3 8a3c 2bab 103d
000003b0: 9436 12be 0b29 7abd 359e 19bf 76e0 cebe
000003c0: 68b0 353e b2eb 673e 569d 733e c2b1 d1bd
000003d0: 3da2 83bd d9e9 6b3e 403c 563d 847d fe3e
000003e0: f720 963d 793c 92bf 2fcf 0e3f d55b dd3d
000003f0: 4d59 103f 9309 8bbf 937d 343e 432f 45be
-0.29153588 0.36270973 0.53620356 -0.017500462 -0.05990028 0.11972189 0.36179817 -0.7263687
0.084846176 0.6952004 -1.3339849 0.019491425 0.039585266 0.065129764 0.3541122 -0.12243458
0.43189695 -1.4935102 -0.8299955 -0.41397935 0.08476168 0.63992035 0.7950523 1.5134056
0.2163377 0.19420473 -0.20280313 -0.119079284 0.38585114 0.26935017 -0.7022389 0.9602305
0.35269582 0.11376421 0.3163534 0.03720679 0.42330652 -0.029432142 -0.44085103 -0.015142201
-0.56702083 -0.44684508 0.5096119 -0.22345805 -0.17244598 0.6181857 -0.33677995 0.5084027
-0.15718275 0.021105122 0.1888935 0.11369731 0.71827143 0.6115156 -0.5805414 -0.096378
0.6414247 -1.6293075 -0.036926363 0.09992002 0.20957245 0.3989637 0.029297076 0.10256725
-0.20374985 -0.32036492 -0.2537608 -0.11252084 -0.051447928 0.4529577 0.2113612 -0.095591635
0.18423821 0.0184016 -0.39034203 -0.24001816 -0.109268226 -0.63663083 0.012413949 -0.30269417
-0.14608125 0.40684587 0.24404573 -0.069443844 -0.8053881 -0.72961646 0.051006455 -0.5540831
0.15018815 0.30070546 0.5693765 -0.056461725 0.005740024 -0.40473393 0.3015273 -1.0917292
-0.3047809 0.0560902 -0.03533401 -0.2977797 -0.14170685 0.5530071 -0.17751677 0.42158112
-0.05837418 1.3647069 0.22268765 -0.0109257335 0.019329313 0.41817734 0.60429525 -0.57364386
0.2293319 -0.963731 -0.07111756 -0.23471634 0.21805404 0.37504235 -0.70026714 -0.24584498
0.15792078 -0.17146912 -0.5197794 -0.1661561 -0.2748644 0.097014554 1.0368341 0.027719004
0.36888316 0.6167945 0.3146788 0.57414204 0.5586722 0.21493511 0.19764216 0.0027708183
0.5207273 0.21074085 0.3151302 0.036761217 0.30392307 0.47067222 0.31533414 0.512649
-0.34989986 0.5314696 0.30931902 -0.029808355 -0.14983898 0.41286486 0.02059501 0.03155167
0.23323108 0.11481932 0.18201979 -0.35885432 0.60776216 0.0021676864 0.32811207 0.17913394
-0.26927173 0.3090329 0.098803036 -0.20051397 -0.20078364 -0.17637478 -0.048217032 -0.42177215
0.08898393 0.3790603 0.26338056 -0.06341173 0.1392488 -0.02393375 0.15543978 -0.20287983
1.6917756 0.80937994 -0.15641776 -0.051530696 0.47998053 0.4110697 0.039408468 0.15468393
1.0458013 0.05321132 0.29509833 0.46300054 -0.27172837 -0.33688378 0.4409796 -0.2041812
-0.19315976 0.46140432 0.3014052 0.09035232 0.807653 0.27707604 -0.10080501 -0.800277
0.456922 0.37410852 -0.66437995 -0.36431095 0.50589085 0.19065575 0.36991936 -0.54705083
0.5835573 0.1844916 0.62197024 0.6512946 0.028729623 0.67532665 0.24790575 0.75267434
0.17420699 0.5667236 0.12646529 0.6922353 0.018431999 0.5062457 -0.048371397 -0.4511544
-0.05620899 -0.17965958 0.34011236 -0.16051272 -0.039580155 0.30495363 -0.31943762 -0.10460041
0.06315988 0.5287911 0.016923439 0.03531949 -0.14278632 -0.061074298 -0.6000703 -0.40405625
0.17743075 0.22648504 0.23790488 -0.10238983 -0.06427429 0.23038425 0.052303553 0.49705136
0.07330506 -1.1424705 0.5578489 0.10808531 0.5638626 -1.0862297 0.17626028 -0.1925631
