artifacts/models/node2vec/model_node2vec_07-26-2023-22-07-10.pt (torch, 10364 bytes, 1 tensors)

embedding.weight f4 [469, 5]
00000000: 2c0a 7e3e 8f61 4abf e840 d7bd f3fc 2abe
00000010: a7b8 613e 8646 07bf fa65 94bd 30fc c93d
00000020: c3ec 4abe 8f29 9f3f 82dc 2ebe 61dc 7bbf
00000030: 77b1 343d 7260 da3e ab04 68be 8f9b 573d
00000040: d6e4 43be 5221 62be f5fc 99bc 4dc1 80be
00000050: d2ad 073f 775a e4be d844 103f b508 04bf
00000060: 909c 763e b44c dbbd da06 82be e623 643f
00000070: b169 703c c5c0 88bd 1df8 353f dd25 23bd
00000080: de92 ee3e fe08 c1be fc96 44be a6bc 72be
00000090: 60be d2be b089 5f3e dcbc 233c 2789 273d
000000a0: d1c5 203d 1547 c23c 401c 093f 5148 3f3e
000000b0: b557 bebe 1020 a9be 4495 4cbf 0796 453e
000000c0: 6f5e 6fbe 535a 0d3d 2afe b8be 6fe9 1f3e
000000d0: 4ce2 d63e 3908 77be d32b 233f 9297 3e3f
000000e0: 1482 b2bd c298 86be c119 18be 71cf c6be
000000f0: 724f 603f 77d3 05bf 04cd 69bf d27b 5d3e
00000100: 5513 bb3d bcfa a93e 1ddb 15bf 26f6 993d
00000110: f12d dbbe f7e6 783e 6c82 d73d df6c fbbd
00000120: 9d5a 7b3f 47fa 5c3f c6c0 21bf 7d64 023f
00000130: 5bb2 203e c9db 9abf 59b1 97be 6e4e aebe
00000140: b074 edbd def6 1abe 78ca 8dbd 53b2 5cbe
00000150: a8b4 433f 8082 bfbe 7836 033e 95e7 383d
00000160: a697 f5be f731 9f3e 6ef2 213f 12a9 64bf
00000170: 5b07 b8be e31a 20be 3492 04bf 50db ad3f
00000180: 1f54 443f 10fa ab3d 1fa9 8dbe 729c 263c
00000190: ed6c bb3e 0ede 963d 54ac 6d3d c98a 66bd
000001a0: e1dc f93e df40 a93d d9db d03d bbaa 303f
000001b0: d3b1 c03e d574 513f 00d2 e5be eff4 2cbe
000001c0: ff82 d23e f227 d2bd 34d1 46be 3ad6 2abe
000001d0: fe85 37bd 8b88 153e 5d1e 43bf bc46 e13e
000001e0: cc14 0abf 0ea9 d23d cfca 00be 85b6 f7be
000001f0: f145 383e e037 6d3e e1a2 453e eb81 523b
00000200: 6114 29bf e35c 10bf d705 363e b804 f5bd
00000210: 918a 9f3f e0eb 53bf 2728 20be dffc 463e
00000220: 479e 4d3f f4cc 26be d3e7 13be ce82 e83e
00000230: 52c1 1dbe 013d 383e 300b d83e 2699 9c3e
00000240: fc6f 47be 4965 223f 0b32 dcbe d622 4cbe
00000250: e6c1 323e b511 82be 51d7 4c3e 865d 7fbd
00000260: 8f0b 6c3f f43b 703e cf88 8d3d e358 793e
00000270: a7c3 76be 06fd d93e 868f 0bbd e795 933d
00000280: 719b 513e f985 e9be 9dfe af3e 7ac9 77be
00000290: 555b dfbc 2ea7 943e cbde 80bf dac6 babb
000002a0: e14a 9abf 952e 29bd 9b10 bd3e 2e7c adbe
000002b0: 5f9e 8abe 63b6 8dbd 8e13 653e e287 08be
000002c0: b6e6 22bf f40d 213f 9bad ff3d a0b2 61be
000002d0: a148 c1be bfae d73e 7910 d7be c0e4 ae3e
000002e0: d990 013e ad21 e33e a8e3 95be d01c 88bd
000002f0: 09a8 9a3e 30a3 a73e 9af2 ddba 03ed d6be
00000300: 5633 83bc 2c4a 48be ec67 e2be edaf 373f
00000310: 26d1 a1be 263d dcbe cc24 97be 5c71 aabe
00000320: f3e9 f73c 69a9 153f 6e4b 433e e4ea 14be
00000330: 8f56 a93d 7c56 f83b 3f62 663c 8104 e0bd
00000340: 784c 30bf a5be ba3d 5a4e fa3e f78d 3ebe
00000350: 0d22 3c3e c26b 66be 2b5e 5b3e 1726 2c3e
00000360: c338 f6be 19f3 963e 577e 8e3d bb69 27be
00000370: 51c8 393e 064b 293e b915 143f ba6a b93e
00000380: 6d11 513e 055b 58be aea0 47be 2e9a 4dbc
00000390: 74fe 56bf bc5c 7dbe 97fa c23d 0c75 4fbe
000003a0: 4e3b 07be 4cf4 14bf 3a64 33bf d613 0ebe
000003b0: 1695 3fbd 8e47 0f3f c0e6 32bf aed2 843e
000003c0: 5d36 1abe 06a6 c9be ad5d 9e3e 419b 6cbd
000003d0: ab8a 09bf 25b2 993e 8291 d93d b5f4 d0bf
000003e0: f22d 283f 811e 613e c760 bc3e 308d 163f
000003f0: 1d03 473f 33ce 19bf 6c58 43bd c85f f53e
0.24808568 -0.7905511 -0.10510427 -0.16698055 0.22043096 -0.52841985 -0.07246013 0.09862554
-0.1981688 1.2434558 -0.17076305 -0.98383147 0.044114556 0.42651707 -0.2265803 0.052638587
-0.19130263 -0.22083023 -0.018797377 -0.25147477 0.52999604 -0.4460027 0.5635505 -0.51575786
0.24083161 -0.10707989 -0.25395852 0.89117277 0.014673636 -0.06677393 0.71081716 -0.03983103
0.46596426 -0.37702173 -0.19198221 -0.23704776 -0.4116087 0.21829867 0.009993758 0.040902283
0.039251152 0.023715535 0.5355873 0.1867993 -0.3717629 -0.33032274 -0.7991526 0.19295512
-0.23375867 0.034509968 -0.36131412 0.15616392 0.41969526 -0.2412423 0.63738745 0.7445003
-0.08716217 -0.2628842 -0.14853574 -0.3883014 0.87621224 -0.52275795 -0.91328454 0.21629265
0.09134547 0.33199108 -0.58537465 0.07517652 -0.42808488 0.24306856 0.10522923 -0.12276625
0.9818514 0.8631939 -0.63184774 0.5093458 0.15693037 -1.2098323 -0.29627493 -0.34044212
-0.11594522 -0.15133235 -0.069233835 -0.215524 0.76447535 -0.3740425 0.12813747 0.04514273
-0.4796726 0.31092808 0.63260543 -0.8932048 -0.35943112 -0.15635256 -0.5178559 1.3582554
0.7669086 0.08397305 -0.27668092 0.010169135 0.3660654 0.07366572 0.058025673 -0.0562847
0.4880133 0.08264326 0.101981826 0.69010514 0.3763567 0.81818897 -0.4488678 -0.1689031
0.41115567 -0.10261525 -0.19415742 -0.16683283 -0.04480552 0.14602868 -0.76218206 0.4399928
-0.53937984 0.10286151 -0.12577365 -0.4838144 0.1799543 0.23165846 0.19300415 0.0032120894
-0.6604672 -0.56391734 0.17775665 -0.11963791 1.2464162 -0.8278179 -0.15640317 0.194324
0.8031964 -0.16289121 -0.14443903 0.45412296 -0.15405777 0.17992021 0.42196035 0.30585593
-0.19476312 0.634358 -0.4300693 -0.19935164 0.17456779 -0.25404134 0.20004012 -0.06234505
0.92205137 0.2346037 0.0691086 0.24350314 -0.24098073 0.42575854 -0.03407242 0.07206326
0.20469452 -0.45610026 0.34373942 -0.24197951 -0.02726523 0.29033798 -1.0067991 -0.0056999745
-1.2054101 -0.04130419 0.3692673 -0.33883804 -0.27073953 -0.06919553 0.22370741 -0.13333085
-0.63633287 0.62911916 0.124842845 -0.22040796 -0.37750724 0.42125508 -0.42004755 0.34158897
0.12652911 0.4436163 -0.2927525 -0.066461205 0.30206326 0.3274169 -0.0016933263 -0.419777
-0.01601569 -0.19559544 -0.4421991 0.71752816 -0.3160488 -0.43015403 -0.2952026 -0.3328961
0.030262923 0.58461624 0.19071743 -0.14542729 0.08268463 0.007578669 0.01406151 -0.10938359
-0.6886668 0.09118394 0.48887902 -0.18608843 0.18372364 -0.22502044 0.21422641 0.16811405
-0.4809018 0.29482344 0.06957691 -0.16348927 0.18142821 0.16532525 0.57845646 0.36214238
0.20416804 -0.21128471 -0.19494888 -0.012548966 -0.83982015 -0.24742407 0.095204525 -0.20259494
-0.13206217 -0.5818527 -0.7007481 -0.13874754 -0.04677304 0.5596856 -0.69883347 0.25941986
-0.150598 -0.39384478 0.30930844 -0.05776525 -0.53727216 0.30018726 0.106234565 -1.6324679
0.65695107 0.21984293 0.36792585 0.58809185 0.77739125 -0.6008026 -0.047691748 0.47924638
