artifacts/models/node2vec/model_node2vec_07-26-2023-22-05-53.pt (torch, 6652 bytes, 1 tensors)

embedding.weight f4 [469, 3]
0.09640796 -0.14688838 0.24532498 0.28795815 0.022592913 -0.101864465 -0.23066649 0.67461646
0.29675952 -0.45264056 0.27953392 0.07459866 -0.31246322 0.92992663 -0.9862045 0.5223167
0.65651137 0.6039178 0.06912595 0.31575456 -0.16830197 0.14255719 -0.102415435 -0.029805562
0.20379221 0.92499006 -0.24529958 0.28289706 -0.7636745 -0.09537333 -0.019737056 0.7348475
0.7814789 0.24172202 0.116787545 0.57468444 0.03716862 0.36257115 -0.5376587 -0.78951484
0.28787094 0.10555833 -0.11081137 -1.18758 0.474414 0.08711805 0.16323224 -1.1906688
-0.0012887951 -0.3915241 -0.01301194 0.46700186 0.13924335 -0.34908023 0.33184174 0.4616158
-0.37881723 0.11088541 0.2591373 -0.0011105372 0.3423528 0.18624075 -0.3139773 -0.11625312
0.947758 0.25416356 -0.4499475 0.21389207 -0.4664163 0.9145654 -0.459561 0.056235537
-0.72501963 0.38805786 0.39920345 0.01797945 0.36887205 0.13792251 0.2009614 -0.84976315
0.2513202 0.036909867 -0.41435763 0.42576072 0.22647996 0.09751569 -0.45199892 0.29622397
-0.23461676 -0.47785962 0.02198307 0.3260932 -0.7142869 0.009157848 0.649465 -0.2940186
-0.19864917 0.41276187 -0.42921537 0.29473335 0.29910466 0.19555235 0.68533367 0.08218854
1.0452833 -0.0010847123 1.0377104 0.44096786 -0.64956754 0.3624541 0.80994236 -0.466403
0.53372234 -0.19863708 -0.08512189 -0.103083976 -0.5487717 -0.8828276 -0.23568913 -0.06262136
0.19096696 -0.010713454 -0.21223374 0.07728661 0.027101627 -1.0755426 0.16516006 -0.001856351
-0.043836284 0.26330957 -0.26949355 -1.2195851 0.10871044 0.3883542 -0.29295877 -0.25491837
0.68357813 -0.14273429 0.23172969 0.32432353 0.2687123 0.066089846 -0.004704554 0.4659164
-0.60147566 0.77062774 1.0370938 0.13950513 0.91575116 0.02146693 -0.35849494 1.2311741
-0.4701592 0.9556034 -0.0015226726 -0.23139098 0.6546243 -0.4482639 -0.5725154 0.4010801
0.31381404 0.014100104 0.34505275 -0.5468419 0.29075474 -1.0999146 0.58855283 -0.40577736
0.07401919 0.31987128 0.13233128 0.13766134 -0.25743574 0.12174437 0.19431312 0.37893742
0.43396708 -0.11173758 0.39988565 0.2538489 0.40504256 -0.17392133 0.11910145 0.16952452
0.16279328 -0.10528387 -0.41899598 0.35072827 -0.42802966 0.3036502 0.39272484 0.059633672
0.3823632 0.26891023 0.77418923 0.33009514 0.007810861 -0.43922532 0.6144006 -0.015073093
0.4885019 -0.7907967 0.6064994 0.6826286 0.038310923 0.5134183 -0.12635915 -0.15274462
0.42377013 0.21664606 0.12322099 -0.03803654 -0.55453247 0.6444834 -0.17473423 0.94417626
0.47247422 0.15149108 0.038901865 0.18250248 0.4163748 0.33392933 -0.46723574 1.7754443
-1.0172752 0.5165391 0.3348434 0.19188304 0.61616397 -0.0119026555 0.36066136 0.293423
-0.1867122 -0.40778536 -0.111026555 0.10759861 -0.02015996 0.4286389 0.2811996 0.0227091
0.31164148 0.2586183 -0.17961079 0.4392682 0.18873218 0.63306034 -0.823933 0.6620052
-0.69618386 0.31376314 1.0274779 0.7185707 0.106094494 -0.055464737 0.41624177 0.49808863
00000000: 8971 c53d e869 16be 7936 7b3e 406f 933e
00000010: c614 b93c 519e d0bd d633 6cbe aab3 2c3f
00000020: ddf0 973e 81c0 e7be 121f 8f3e 2fc7 983d
00000030: 2efb 9fbe ac0f 6e3f e677 7cbf 8cb6 053f
00000040: 2111 283f 5b9a 1a3f e891 8d3d 95aa a13e
00000050: 5a57 2cbe 83fa 113e 2fbf d1bd cb2a f4bc
00000060: e8ae 503e 26cc 6c3f d02f 7bbe e2d7 903e
00000070: 2c80 43bf 1853 c3bd 9baf a1bc f71e 3c3f
00000080: 000f 483f fa85 773e 4f2e ef3d 851e 133f
00000090: 1f3e 183d eda2 b93e 00a4 09bf a51d 4abf
000000a0: d263 933e f72e d83d 12f1 e2bd 9f02 98bf
000000b0: 64e6 f23e f36a b23d 5a26 273e d667 98bf
000000c0: caec a8ba d975 c8be 0830 55bc de1a ef3e
000000d0: cf95 0e3e a5ba b2be 29e7 a93e e858 ec3e
000000e0: 55f4 c1be e417 e33d a5ad 843e 728f 91ba
000000f0: de48 af3e e5b5 3e3e a2c1 a0be 1e16 eebd
00000100: 45a0 723f ba21 823e 855f e6be 8606 5b3e
00000110: 1ece eebe f520 6a3f 944b ebbe 3c57 663d
00000120: e39a 39bf 85af c63e 6564 cc3e a449 933c
00000130: ccdc bc3e 8f3b 0d3e d3c8 4d3e 148a 59bf
00000140: 0bad 803e cd2e 173d af26 d4be 4ffd d93e
00000150: 5dea 673e 4eb6 c73d 676c e7be abaa 973e
00000160: 603f 70be 04aa f4be d715 b43c b0f5 a63e
00000170: 82db 36bf cc0a 163c 5743 263f 9b89 96be
00000180: b06a 4bbe 8655 d33e 1ec2 dbbe 4ae7 963e
00000190: 3f24 993e e03e 483e 0772 2f3f 7752 a83d
000001a0: d8cb 853f e82c 8eba b2d3 843f 8ac6 e13e
000001b0: 0f4a 26bf 9593 b93e 6258 4f3f 60cc eebe
000001c0: 07a2 083f 8567 4bbe 6354 aebd b11d d3bd
000001d0: 4d7c 0cbf fd00 62bf 7e58 71be a13f 80bd
000001e0: d88c 433e 7c87 2fbc cd53 59be 7148 9e3d
000001f0: 3b04 de3c 61ab 89bf b81f 293e ce50 f3ba
00000200: ad8d 33bd 83d0 863e 0ffb 89be 5d1b 9cbf
00000210: 94a3 de3d 5dd6 c63e b1fe 95be a984 82be
00000220: fafe 2e3f f028 12be 8c4a 6d3e bc0d a63e
00000230: a994 893e 1d5a 873d a928 9abb 988c ee3e
00000240: 4ffa 19bf dc47 453f 7dbf 843f 6fda 0e3e
00000250: ab6e 6a3f 6adb af3c a68c b7be 1d97 9d3f
00000260: b5b8 f0be 6da2 743f 6a94 c7ba c2f1 6cbe
00000270: 7595 273f d982 e5be 5f90 12bf 5f5a cd3e
00000280: 3cac a03e 1f04 673c c1aa b03e d5fd 0bbf
00000290: cedd 943e 00ca 8cbf 66ab 163f 0dc2 cfbe
000002a0: 6097 973d 2bc6 a33e da81 073e 18f7 0c3e
000002b0: 9ece 83be 1d55 f93d 05fa 463e 1604 c23e
000002c0: ef30 de3e acd6 e4bd d0bd cc3e 7cf8 813e
000002d0: bd61 cf3e 6f18 32be 76eb f33d d697 2d3e
000002e0: 48b3 263e 129f d7bd a486 d6be a892 b33e
000002f0: b426 dbbe 0a78 9b3e 3b13 c93e 7042 743d
00000300: 1cc5 c33e 9aae 893e 4431 463f 3b02 a93e
00000310: 40f2 ff3b 24e2 e0be 5c49 1d3f 22f5 76bc
00000320: ec1c fa3e a771 4abf 8b43 1b3f bfc0 2e3f
00000330: eaeb 1c3d 626f 033f 4b64 01be 1669 1cbe
00000340: 66f8 d83e 77d8 5d3e 495b fc3d 34cc 1bbd
00000350: d7f5 0dbf ddfc 243f 88ed 32be 89b5 713f
00000360: 24e8 f13e 7a20 1b3e 9057 1f3d eee1 3a3e
00000370: 142f d53e c9f8 aa3e 8639 efbe c241 e33f
00000380: 1336 82bf e83b 043f 9870 ab3e fd7c 443e
00000390: ecbc 1d3f 5b03 43bc 9ba8 b83e 8a3b 963e
000003a0: 7c31 3fbe 3ec9 d0be e461 e3bd a95c dc3d
000003b0: 8026 a5bc 8f76 db3e 65f9 8f3e 6f08 ba3c
000003c0: 798f 9f3e 9e69 843e e4eb 37be c3e7 e03e
000003d0: 0243 413e 3e10 223f 46ed 52bf 2c79 293f
000003e0: 1b39 32bf 90a5 a03e 6584 833f 40f4 373f
000003f0: 1248 d93d fe2e 63bd a41d d53e 7905 ff3e
