artifacts/models/node2vec/model_node2vec_07-26-2023-22-01-20.pt (torch, 23548 bytes, 1 tensors)

embedding.weight f4 [469, 12]
00000000: 7913 f5bd b2ca 573c 797d d5bd 4383 89be
00000010: 9049 cf3d 9b5b fb3e 802c 463e b297 9b3e
00000020: fe06 5e3d ad64 413c 1206 883e ced1 2c3e
00000030: b5ee febd 1b5b c9be f02e 9e3c e296 19be
00000040: 9560 d53d ec78 6cbe 4c67 4c3d 3a6c 97bc
00000050: 5a3d 083d 5309 1cbf be73 9bbd d601 eb3e
00000060: 1ada f63e afa3 00be c703 b63e 3e87 8f3f
00000070: 9242 6e3f 0d14 c63d 1c20 8bbd b2af 333e
00000080: cdd1 9abe 7fc7 cbbc fb4f 803e ff1e fcbc
00000090: 3700 76bf 43da 9ebe f56f 10be 8ee1 67bc
000000a0: 4ea4 81be 9204 bcbe 80f6 2fbd 625d 5dbf
000000b0: ec81 d03d e402 c5bd 2fbb 8c3d 697b 02bd
000000c0: 1cfb 863e 8e79 b2bc 680a eebe 2588 c7bd
000000d0: ecc9 90bd 968e b8be c529 0b3e a620 613d
000000e0: 3132 7bbe c820 aebe 01aa 4bbf bc6b a7bd
000000f0: 0c02 573e 7ae0 68be 0b0c 8abd ee2c 3d3e
00000100: 1727 723d dc50 2c3d 2cb0 a4be c220 b13e
00000110: 5e1b ad3d d759 d03c cd00 d83d 34a3 50bf
00000120: 406f 983e ad1d bdbe 0daf 45be 7813 50bf
00000130: eeac 213e 5767 61bf 5cd4 393c 68a0 b7bd
00000140: 229a 5e3e c697 0abf d74c d93d 7df8 833e
00000150: 8fd4 853d 4519 bebd bf48 11bf 7545 01be
00000160: 2a02 f63d 4769 493d 0628 523d 9265 a6bc
00000170: 5514 c9bd d114 963c e8e3 0d3e d856 a9be
00000180: 3531 2e3e 6d25 4dbf 16f5 95be eb39 673d
00000190: f00d 82be 77fe a0be 228d 73be 4b4c a73d
000001a0: 9a49 47bd d715 603e 6e87 5e3e 2de7 a03d
000001b0: 1299 d0bd 3af9 bd3d acd9 47bd 7746 863e
000001c0: c52f 3ebd 2bdf 56bd 2095 1f3d e9aa 6c3e
000001d0: dfd2 d7be dc6a 3fbc 0b1c 1bbe d3b8 443c
000001e0: 33b8 473e 77bd d6be 131d a03e 951c b53e
000001f0: 1ca3 9f3d 2af5 803e 3094 183f 652f c73f
00000200: 59b1 ff3e 55bd 44bf 16c4 9fbd 754d 773e
00000210: 8f3b 38be 8e19 80bd 51d1 943f b4df 4d3e
00000220: 5ac0 f33e 837e 9fbe 620b de3d 9f59 c9be
00000230: a469 853e a751 813d 7946 a93e 5543 0ebf
00000240: 18d2 fc3c f6c0 d03d 3798 433e aee2 dcbc
00000250: f34a cd3e 4a0b fcbe 81b3 68bd bc50 e7bc
00000260: 56b4 16bd 1dce 5abf 9e01 82be 21c9 4f3e
00000270: 7efc 54bc f5e0 2dbd 6979 c03e 7349 073e
00000280: 89ed 5dbd 09d3 e8bd ea67 b33f aa4d 14bd
00000290: c913 203d 3b5c 4e3d 8691 bfbc 6013 9c3d
000002a0: af64 a03e 6bd4 56bf 9e98 b83e 9c4c 2f3f
000002b0: 6e12 113f c602 8e3e 3196 91be 688e 8f3e
000002c0: 324e edbd d0f6 113e 4488 f73d a62c bd3e
000002d0: 2761 9b3e de30 44be 0a0d 423e 8856 423d
000002e0: 3ebb 00bd d4e3 913c ca4e 90be 5e83 48be
000002f0: e2ac 073d 50f3 743e 6134 1d3f a9df 123c
00000300: 5d41 403d 15aa 09bd b4b5 0c3e 9714 02be
00000310: 9acf b3bd 2148 8d3e 7428 9b3d 2d6b 7e3e
00000320: d72a 033e 42b1 0cbf ed14 9c3f 09c0 32be
00000330: ca50 e23d e829 d8bd 2e16 da3c 8ac3 b0bd
00000340: efc2 013e cc38 ae3d 6c7f 443d bc01 04be
00000350: e03a 2d3f 35f3 bbbe beea e5bc e637 58be
00000360: db9c f7bd 9f62 66be dba6 e1bc 4c88 2fbe
00000370: c6c8 393f 706c d33d 1bae 1c3e 4959 9bbd
00000380: db1f a0be 4218 bcbc d848 2ebe 614a 26bd
00000390: 5cbc 363e a431 4dbe 769e 9f3f ead9 1c3e
000003a0: 1e20 083e 2392 03be 1c85 043f e8b3 0dbe
000003b0: 179d 2cbf a8ed 88bd fd2e 64be 4ed6 643f
000003c0: f976 4abc 2f55 e23d 6921 f93e 2724 2fbe
000003d0: 540b 8f3e b49a 55be 6523 dabc 1b61 153c
000003e0: 808e 1c3f 8be6 c9ba c03c a9bd 3d15 40bc
000003f0: c6ea 5fbe e106 35bf 8145 59be f938 f0bd
-0.11966605 0.013170885 -0.10424323 -0.26857957 0.10121453 0.49093327 0.19352913 0.30389172
0.054205887 0.011803788 0.2656713 0.16876909 -0.124478735 -0.3932732 0.01930949 -0.14998963
0.10418812 -0.23093003 0.0499032 -0.018484224 0.033261634 -0.6095173 -0.075904354 0.45899838
0.48213273 -0.1256244 0.35549757 1.1213148 0.9307033 0.09671793 -0.06793234 0.17547491
-0.3023819 -0.0248754 0.2506102 -0.030776499 -0.9609408 -0.31025895 -0.14105208 -0.0141528975
-0.25320667 -0.36722237 -0.04295969 -0.86470616 0.10181031 -0.09619692 0.0687164 -0.031855974
0.26363456 -0.021786477 -0.46492314 -0.097427644 -0.070697635 -0.36046284 0.13590153 0.054962777
-0.24530865 -0.34009385 -0.7955628 -0.081748456 0.20996875 -0.22741881 -0.06740578 0.1847417
0.05911931 0.0420693 -0.32165658 0.34595305 0.084524855 0.025433464 0.10547028 -0.8149903
0.29772377 -0.36936703 -0.19305058 -0.81279707 0.15788624 -0.8804831 0.011342134 -0.08966142
0.21738485 -0.5413784 0.10610359 0.2577552 0.06534683 -0.092821635 -0.56751627 -0.12624152
0.120121315 0.049172666 0.0513077 -0.020312104 -0.09818331 0.018320473 0.1385647 -0.3307407
0.17010958 -0.8013523 -0.29288548 0.05645172 -0.25401258 -0.3144414 -0.23784307 0.081688486
-0.048654176 0.21883331 0.2173135 0.07856593 -0.10185446 0.09276052 -0.048791572 0.26225635
-0.046432275 -0.052458923 0.038960576 0.23112072 -0.4215307 -0.011683192 -0.15147416 0.012006956
0.1950386 -0.41941425 0.31272182 0.3537337 0.077947825 0.25187045 0.59601116 1.5561339
0.49939993 -0.768514 -0.07801072 0.24150641 -0.1799147 -0.06254874 1.1626378 0.20104867
0.4760769 -0.31151208 0.10842015 -0.39326188 0.2605716 0.06314402 0.3306158 -0.5557149
0.0308619 0.101930544 0.19101034 -0.026963558 0.40096244 -0.49227363 -0.056811813 -0.02823674
-0.036793076 -0.85470754 -0.2539186 0.20291568 -0.012999652 -0.042450864 0.3759263 0.13211612
-0.05418161 -0.11368377 1.4016087 -0.03620688 0.03908137 0.050380927 -0.02338482 0.07620883
0.31326815 -0.83917874 0.36053938 0.6847627 0.56668746 0.2773649 -0.284349 0.28038335
-0.1158718 0.14254308 0.120865375 0.36948127 0.3034756 -0.19159266 0.18950287 0.047445804
-0.031428568 0.017808832 -0.2818511 -0.19581363 0.03312386 0.23920941 0.6140805 0.008964458
0.046937335 -0.03360947 0.13741189 -0.12703167 -0.08779831 0.27594092 0.07576075 0.24845572
0.12809311 -0.54957974 1.2193886 -0.17456068 0.110505655 -0.10554868 0.026621904 -0.08631046
0.12672018 0.08506927 0.04797308 -0.12891287 0.6766796 -0.3670899 -0.028066035 -0.21115074
-0.12090465 -0.22498558 -0.027545383 -0.17141837 0.7257198 0.10323417 0.15300791 -0.07585389
-0.31274304 -0.022960786 -0.17019975 -0.040598277 0.17845291 -0.20038468 1.2470233 0.15317503
0.13293502 -0.12848715 0.5176561 -0.1383816 -0.674272 -0.06685954 -0.2228355 0.89389503
-0.012357467 0.11051404 0.48658302 -0.17103635 0.2793833 -0.20859796 -0.026628206 0.00911739
0.6115494 -0.001540379 -0.0826354 -0.011723814 -0.21866903 -0.7071362 -0.2121792 -0.11729617
