artifacts/models/node2vec/model_node2vec_07-26-2023-22-05-22.pt (torch, 6652 bytes, 1 tensors)

embedding.weight f4 [469, 3]
000000 4a b0 87 3d 2b 2c 58 3f ee 1d 31 3f 0e 90 92 bc
       0.06625421 0.84442395 0.69186294 -0.017890956
000010 c8 6f 97 be ee 24 58 3e 5b 59 c7 3f 3c 81 23 be
       -0.2957747 0.21107838 1.5574144 -0.15967268
000020 67 70 01 3f cd 35 8b be bc 93 d3 be bc 64 01 3f
       0.5056214 -0.27189484 -0.4132365 0.50544333
000030 8f cb 57 3e b6 b0 e2 bd 17 01 14 3e df 92 4d bd
       0.21073745 -0.11068861 0.1445354 -0.050188895
000040 8b cb 6e bd 3b de 07 3e 11 ea 5d 3f 27 98 92 3e
       -0.058299582 0.13268368 0.8668528 0.28631708
000050 3e b2 92 3d 6c ac b0 bb 62 ff 38 3e 53 b4 83 3e
       0.07162903 -0.005391648 0.18066171 0.25723514
000060 0d 84 1f bf 80 e7 05 be 7c a4 f6 3d f2 05 9c be
       -0.6231087 -0.13076591 0.12043092 -0.30473286
000070 6e 67 80 3e 83 5e 01 bf fd 8e a2 3e 47 84 38 3f
       0.2507891 -0.5053484 0.31749716 0.7207684
000080 e4 97 95 3d 1e 77 0f 3f a5 af 5c be 10 a1 2d 3e
       0.073043615 0.56041133 -0.21551378 0.16955972
000090 d0 0b a9 bc 4f 65 21 bd a5 2b 0a 3f 6b 2b ff 3e
       -0.020635515 -0.039403256 0.53972846 0.49837813
0000a0 76 0a 58 3f 88 fc 8f 3e 58 26 92 bf 5f 38 5b 3d
       0.8439096 0.28122354 -1.1417952 0.053520557
0000b0 7b 22 36 bd fc ad a8 3e 50 aa 96 bd c9 06 14 3e
       -0.044466477 0.3294524 -0.07356703 0.14455713
0000c0 89 bd 61 bd b7 62 f0 bd f6 00 03 3f 1e 64 a3 3e
       -0.055112395 -0.11737578 0.5117334 0.3191232
0000d0 79 99 05 bf 8c 3a 32 3d 4c 1a 0b 3e be 43 48 be
       -0.52187306 0.043512866 0.1358425 -0.19557092
0000e0 32 03 7f be f8 26 fb 3e af 9b b0 be db 05 13 3e
       -0.24903563 0.49053168 -0.34493777 0.14357702
0000f0 dc d6 17 be b5 37 5d be 5c 2c 7f 3e b4 5f 47 3e
       -0.14828056 -0.21603282 0.24919266 0.19470102
000100 d3 eb 61 3f d3 9c 37 3f 53 8b d7 3d bc e6 e2 3b
       0.88250464 0.7172367 0.10524621 0.0069244783
000110 aa bf 20 3e 8b ee 6a bd cb 96 27 be b0 4c b7 3e
       0.15698114 -0.0573564 -0.16366117 0.35800695
000120 89 0f c8 bd e5 28 90 be df 69 23 3e 10 e7 db be
       -0.09768588 -0.281562 0.15958355 -0.42949724
000130 6e 05 35 bd 68 70 1f bd 0f 45 e5 be d1 59 b5 3c
       -0.04419463 -0.03892556 -0.4477925 0.022137554
000140 e8 db d9 3e e2 dc f2 bc 7c d7 a2 bc 96 46 fd 3e
       0.42550588 -0.02964634 -0.019878142 0.49467915
000150 98 45 f3 bc 3f d9 1b bf fd 83 23 bf b7 a4 09 bf
       -0.02969627 -0.60878366 -0.63873273 -0.5376696
000160 fd 78 c5 be 35 04 a1 3e 56 82 cc 3d 3f 21 00 3d
       -0.3856887 0.31448522 0.09985797 0.031281706
000170 d4 ed ca 3e ee 52 08 3e 8c 4f ad bf 5a e2 18 3e
       0.39634573 0.13312885 -1.3539901 0.14930096
000180 c0 bd 2d 3e 46 bd 19 3e 01 84 15 bd 8f 00 82 bf
       0.16966915 0.15013608 -0.03650284 -1.015642
000190 28 0b 29 bf 00 d0 35 3e f9 46 98 bd ab 5a ba 3e
       -0.6603265 0.17755127 -0.07435412 0.363973
0001a0 0a a1 79 3e 5e 99 87 3e 1f 5b 0c 3f 3f 60 e5 bd
       0.24377838 0.26484197 0.5482654 -0.11199998
0001b0 66 da f4 be d5 d1 39 bf 7a f4 72 3e 5f f2 86 bf
       -0.47822875 -0.72585803 0.23726073 -1.0542716
0001c0 10 49 1e be 7b df 21 3f a9 a8 d2 3e 2d 4d 8b be
       -0.15457559 0.6323163 0.41144302 -0.27207318
0001d0 25 93 fe 3d cc 6f ff bd b2 10 0f be 5e 8c c4 3c
       0.12430409 -0.124724954 -0.13971213 0.023992714
0001e0 10 29 fc bd 14 69 bd 3e a6 99 a5 3e 6a 87 6e bc
       -0.123125196 0.3699423 0.32343787 -0.014558652
0001f0 04 94 0b be ab f0 32 3f 68 e4 78 3d 83 9a 2d be
       -0.13630682 0.6989848 0.0607647 -0.16953473
000200 6c cf 98 3e 40 44 c1 be 15 6d 8f 3c 0c 64 38 3d
       0.2984575 -0.37747383 0.017508069 0.045017287
000210 ae 4d 56 3f 5f e7 44 bc 5a 50 0b 3f 78 12 d7 3d
       0.8371228 -0.012018054 0.5441948 0.105015695
000220 4d 7b 13 be ac ec 9c 3e eb b5 72 3f c4 b6 66 be
       -0.14402504 0.30649316 0.94808835 -0.22530657
000230 30 4a 40 be fc e4 23 3f 70 85 aa be dc 9d da be
       -0.187783 0.6402128 -0.3330493 -0.42698562
000240 0c 35 05 3e ed f6 3d 3d f7 19 b6 3f 1e ab ce 3d
       0.13008517 0.046378065 1.4226674 0.10091232
000250 2f ae 9b be dd bc 63 3e 37 8c d1 bd 5e 66 60 bf
       -0.3040633 0.22240014 -0.10231822 -0.876562
000260 ce 2e fd be 54 d8 99 3e db 4f 17 bf 84 f8 4c be
       -0.49449772 0.30047858 -0.59106225 -0.20016676
000270 12 c3 dd 3e 10 99 71 bd 5e c6 ee bd 9b cd e1 bd
       0.4331289 -0.058983862 -0.11658929 -0.11025544
000280 f0 89 0c bf 98 12 b2 be ab c0 b0 3e 18 9f 2c bf
       -0.54897976 -0.3477981 0.34521994 -0.6743026
000290 96 83 f8 bf c1 aa b1 3d 37 ea 51 bd 05 8f b1 3d
       -1.9415157 0.08675147 -0.051248755 0.08669857
0002a0 5d 97 57 be 00 22 09 bf b4 18 c4 3e 95 32 2e 3c
       -0.21053834 -0.53567505 0.38300097 0.010632177
0002b0 58 f8 03 bf db 3f 5e be 14 d0 d9 bd 54 8f de be
       -0.5155082 -0.21704046 -0.10635391 -0.43468726
0002c0 11 66 67 3e 86 c8 43 bf e0 f9 50 bf 54 8b dd bf
       0.22597529 -0.7647785 -0.8163128 -1.7308145
0002d0 32 32 1f 3e 81 c3 9f 3e 65 72 3a 3e b9 f7 34 bd
       0.15546492 0.31203845 0.182077 -0.04418156
0002e0 dc 03 f5 3d 7e 4e 1e 3e 2e 41 4a 3f 11 b8 23 bf
       0.11963627 0.1545963 0.79005706 -0.6395274
0002f0 b2 82 53 3e 21 bc 66 be 1d 46 92 be 51 ce 63 be
       0.20655325 -0.22532703 -0.28569117 -0.22246672
000300 83 21 55 3e d4 f9 1d be ec 7b 35 3e b7 00 b2 be
       0.20813565 -0.15427333 0.17723054 -0.3476617
000310 7d b2 a5 3f ed d4 a6 be 3c a5 74 be 86 cf ac 3e
       1.2945095 -0.32584324 -0.23891157 0.33752078
000320 de 20 18 3f 41 b9 67 be 76 74 44 bf 62 76 03 3d
       0.5942515 -0.22629263 -0.76740205 0.03209532
000330 2c d6 b7 be 77 7d 9c 3f fd 0f 70 3f e6 9a c1 bd
       -0.35905588 1.2225789 0.93774396 -0.09453373
000340 75 e3 19 bf 29 3f 64 bd 61 16 92 bd f3 b1 10 bf
       -0.60112697 -0.055724297 -0.07133175 -0.5652153
000350 f2 62 78 3e da cd 63 3e c8 98 d9 bc fb fa b7 3f
       0.24256495 0.22246495 -0.02656211 1.4373468
000360 fd db 0c 3f 31 e7 40 3e e1 d1 cc 3e 77 47 51 3e
       0.55023175 0.18838193 0.40003875 0.20437418
000370 92 ad 06 be 01 28 ac 3d 82 e7 b1 bd aa 70 e3 3f
       -0.1315215 0.08406068 -0.08686735 1.7768757
000380 54 37 4c 3f cf 9e 36 3d fe e0 16 be 34 93 b3 3e
       0.79771924 0.044585045 -0.14734265 0.35073245
000390 10 6a 13 3e 0f 5e 15 3e db aa 75 3f 3b a8 74 3f
       0.14395928 0.14586662 0.9596383 0.955692
0003a0 da 49 90 bd 79 32 af 3e 2b 8a 4d be 56 98 16 bc
       -0.07045336 0.34218195 -0.20072238 -0.009191593
0003b0 0f 16 70 3e 15 2d 69 3d 5c 33 47 be 7c 3a d6 be
       0.23445915 0.05692776 -0.19453186 -0.41841495
0003c0 64 a0 ac 3e 76 cc b2 be ca cd b6 3d 84 ec b8 be
       0.33716118 -0.34921616 0.0892597 -0.36117947
0003d0 0f 32 a6 be 35 51 2d 3f af d5 1f be 20 71 8d be
       -0.32460067 0.6770204 -0.15608858 -0.2762537
0003e0 59 61 ca bd c1 e7 7e 3f 9e c8 19 be c0 c1 7f 3e
       -0.09881849 0.9957238 -0.15017936 0.24976254
0003f0 35 59 a3 3f e8 0b 19 be ab 47 fe 3e 40 6e c4 3f
       1.2761599 -0.14945948 0.49664053 1.5346146
