artifacts/models/node2vec/model_node2vec_07-26-2023-22-02-54.pt (torch, 57276 bytes, 1 tensors)

embedding.weight f4 [469, 30]
000000 a9 68 31 3f c6 4b 07 be c7 29 4c 3e 95 b7 17 be
       0.69300324 -0.13212499 0.19937812 -0.14816125
000010 36 98 c2 bd 6c 66 01 3e cf 0a 33 3d 39 97 ee 3d
       -0.09501688 0.12636727 0.04371148 0.11649937
000020 f2 fd 44 3e 3c 5b d9 3d 26 55 4f be 29 44 bd 3f
       0.19237497 0.10613105 -0.20247325 1.4786426
000030 6e 37 18 be 5b ea 77 3e 55 74 54 3e 42 82 65 3e
       -0.14864895 0.24210493 0.20747502 0.2241297
000040 32 02 ca be 4d 0f 63 3e af 7d 07 3e d6 97 68 3e
       -0.394548 0.22173806 0.13231538 0.22714171
000050 8a 75 c5 bd 22 bd 71 3d 67 4d 3e bd d7 00 32 be
       -0.096415594 0.05901826 -0.046460535 -0.17383133
000060 95 97 04 3f 9b e0 15 3e 16 7a 58 be 69 e4 8b bf
       0.51793796 0.14636461 -0.21140322 -1.092908
000070 66 45 88 bf 95 de 75 3d ba 83 dc bd 10 3b a8 3e
       -1.0646179 0.060026724 -0.10767312 0.3285756
000080 20 07 f2 bd 33 10 34 be 3c 14 b8 bd 89 e9 d0 3b
       -0.11817765 -0.17584305 -0.089882344 0.006375496
000090 99 9e 96 3d 5a ee be 3d 05 62 fa bd a7 b7 09 bd
       0.07354469 0.09322806 -0.12225727 -0.03362241
0000a0 f5 71 0e be 05 58 18 be 46 0e 7e bd b9 72 39 3e
       -0.13910659 -0.14877327 -0.06202533 0.1811017
0000b0 15 8d 95 3d 35 4c 00 3e 22 46 e5 bd 21 bd 99 3d
       0.073023 0.1252907 -0.111950174 0.075067766
0000c0 6a 93 85 bd e0 c9 a1 bb 8a d6 ad 3d d2 c1 8d bc
       -0.065222576 -0.0049373955 0.08488186 -0.017304335
0000d0 5d 97 f1 3d 0b fe 42 3e 0c bc c8 bd 4d c4 dd bd
       0.117964484 0.19042222 -0.09801492 -0.10828457
0000e0 44 20 bc 3c 30 6a 99 3d ee 59 a5 bc 5b 70 d3 3e
       0.022964604 0.07490957 -0.020184483 0.41296658
0000f0 7c df 99 3d a0 38 2b be 2d 06 10 be 1e 00 8b be
       0.075133294 -0.1672082 -0.14064856 -0.27148527
000100 f5 62 a4 3d b3 1f b6 ba 5e b4 13 3d bc c5 bf 3e
       0.08026687 -0.0013894945 0.036060683 0.37455547
000110 c8 03 22 3e d4 ec ed bd a8 bf 6a be 4b de 26 be
       0.15821755 -0.11617437 -0.22924674 -0.16295736
000120 6c fd 22 3e 52 7d 0b 3f 97 4a 10 be e8 08 85 3d
       0.15916985 0.544881 -0.14090954 0.06495839
000130 c2 be c6 be 1c fc a2 3c 60 29 53 bc 69 d1 cd bd
       -0.38817412 0.019895606 -0.012888283 -0.100497074
000140 3f 27 90 be d9 1e 96 be b5 74 e5 3d 56 16 03 be
       -0.28154942 -0.2932041 0.11203901 -0.12801489
000150 b5 f4 46 3e ea a7 0e 3e 24 c8 f0 3e 32 65 45 be
       0.19429286 0.13931242 0.47027695 -0.19276884
000160 15 a1 12 3e 89 f9 cc 3d 3b a5 f4 bc 90 16 83 3d
       0.1431926 0.100085326 -0.029863944 0.06400788
000170 6b 5b dd 3c dc 33 87 bc bf 7a a1 bd 2f 63 f3 3d
       0.02702113 -0.01650422 -0.0788474 0.11884152
000180 cc f6 10 be 5d dc c0 bd 88 3c d5 3c 0c 5e e0 3b
       -0.14156646 -0.09417031 0.02602984 0.0068471488
000190 8f e4 89 3d 18 da 0d bb 45 a3 02 3c 8f 47 17 3d
       0.06733047 -0.0021644887 0.007973497 0.036933478
0001a0 4a a8 39 bd 4c 9a 52 3e d2 03 3e bd 52 00 02 bd
       -0.04532651 0.20566672 -0.046390362 -0.031738587
0001b0 8c 3e ff bb dd 5a 12 bd 40 b0 1d bd 86 44 01 3d
       -0.0077894386 -0.035731185 -0.038498163 0.03155949
0001c0 9b f6 80 bd 41 8f 93 3a e3 e7 40 3d 77 52 d3 bc
       -0.06297036 0.0011257903 0.047096144 -0.025796158
0001d0 d6 e4 a9 bd 6e d8 92 3d 23 39 a3 3d d3 6e 2a bc
       -0.082956 0.07170187 0.07969882 -0.010402399
0001e0 fb 77 2e bd e7 c2 67 3e 85 35 44 3e f5 e7 43 be
       -0.04259489 0.22632943 0.19161041 -0.19131453
0001f0 e9 cc 09 3d dc d0 9a 3e 77 74 3d bd a5 e8 df bd
       0.033642683 0.30237472 -0.046253648 -0.10933045
000200 29 56 9b bd 57 92 81 be 33 63 8d bb 94 4e de bc
       -0.07584793 -0.2530696 -0.004314804 -0.027137078
000210 6c a8 12 3e 03 1d 65 bd 1a 7a 29 bf 35 63 e3 3e
       0.1432206 -0.05593587 -0.6620194 0.44411626
000220 f4 73 d9 3d 3b 71 07 3e ef 75 1d be 99 6f ff bd
       0.106178194 0.13226788 -0.1537702 -0.124724574
000230 23 07 82 3d fa 42 40 bc d8 c0 8f 3e 26 09 0c be
       0.063490175 -0.011734718 0.28076816 -0.13675365
000240 82 9d 68 3e 37 1a 82 3d 3f 81 91 3c 1e d8 44 3e
       0.22716334 0.06352656 0.017761825 0.19223067
000250 ef ad db bc ff 01 20 be 5f 12 d6 bd c5 6e 02 3e
       -0.026816336 -0.15625761 -0.10452723 0.12737568
000260 4e 39 8b be 15 97 6b bd 72 dd 84 3d 56 6a 2c 3e
       -0.27192158 -0.05751713 0.0648755 0.16837439
000270 3f e1 a2 3e 7e 3e ca bd cb 48 ea bb e1 bd 7c bd
       0.31812474 -0.09875201 -0.007149791 -0.06170452
000280 b7 67 6e be d9 74 15 bd 29 37 22 be 32 44 37 3d
       -0.23281752 -0.036488388 -0.15841354 0.04474277
000290 4b a5 30 bd e5 a9 15 3e 2d 5c bc 3c 7b 1e e7 3c
       -0.043126386 0.14615591 0.022993172 0.028212776
0002a0 15 fa cb be c6 5c e7 3d 64 7a 43 3d 56 a8 92 3d
       -0.39839235 0.11296992 0.047724143 0.07161014
0002b0 d4 f3 a3 b9 c6 6f 91 3c 79 d9 b8 3d 4c 94 9c bd
       -0.0003127145 0.017753493 0.090258546 -0.07645473
0002c0 ae b3 e0 bd 2a bd 6d 3e 72 d6 85 3d 96 94 0e bd
       -0.10971771 0.23216692 0.06535043 -0.03480967
0002d0 19 dc 51 bd 5d af 06 3e 2c d2 c5 3d 3a bd 9d be
       -0.051235292 0.13152833 0.09659228 -0.3080843
0002e0 b4 50 8e bd 1f 08 13 3e 28 ab 97 bc 47 7b 6c bd
       -0.06948987 0.14358567 -0.01851423 -0.057734754
0002f0 72 ad f6 bc d3 53 54 bd d4 0e ea 3d ea 12 9a bd
       -0.030112002 -0.051837754 0.114286095 -0.07523139
000300 61 fe 29 3d ae 38 b6 3d 28 00 e6 bd 9d 80 c0 3d
       0.04150236 0.088975295 -0.112304986 0.09399531
000310 75 cf 05 bc 93 f7 2c 3d a5 4f a3 bd ce 13 bc be
       -0.008167137 0.042228293 -0.07974175 -0.3673386
000320 d5 b8 ef 3d 6c d4 88 bd ca d6 9a 3c 46 f9 28 bc
       0.11705176 -0.06681141 0.018901248 -0.010313338
000330 1f 1f b0 3d ae 84 0a 3f 46 49 35 3d 37 f6 49 bd
       0.08599686 0.54108703 0.044259332 -0.049307074
000340 b4 50 92 3d b8 d1 f6 3c 74 92 8d bc aa 5b e5 bd
       0.07144299 0.030129299 -0.017281748 -0.11199124
000350 ee a3 13 bd cb e2 38 3d 6c 20 d3 bb c0 64 f2 b8
       -0.036045007 0.04513816 -0.006443074 -0.000115582254
000360 59 ba 56 bc 40 0c 44 3d 16 09 04 3e 2d b5 72 bd
       -0.013105952 0.047863245 0.12894091 -0.059254814
000370 43 76 c4 3e a5 61 76 be f7 b1 06 3e 9d ff f8 bd
       0.38371477 -0.24060686 0.13153826 -0.12158129
000380 e3 7b 1e 3e 28 26 0c 3d 00 c4 30 bc 20 5e 13 3e
       0.15476947 0.034216076 -0.010788918 0.14391375
000390 de 24 41 3a 2c cb 31 3d 01 22 16 3d e0 fc 3b bc
       0.00073678594 0.04340665 0.036653522 -0.011473864
0003a0 03 f2 5e be 22 f5 b4 bd da 8c 0c bd d7 4d 38 3d
       -0.21772008 -0.08835818 -0.034314014 0.04499611
0003b0 00 75 7f 3d 1a 91 5f be 95 fa b4 3e a8 e8 f2 3c
       0.06236744 -0.21832696 0.3534743 0.029651955
0003c0 11 a8 f8 bb ec 71 2f 3e c5 5c 1f 3e aa ed 4f be
       -0.0075883945 0.17133301 0.15562733 -0.20305505
0003d0 cd 7b b7 3d 5b 69 8b 3d c7 1c 03 3e e3 0b 79 be
       0.0895916 0.06807204 0.12803946 -0.2432094
0003e0 4e 52 56 3e 78 25 2c 3f a8 d6 91 3d f4 4d 21 be
       0.20929834 0.6724467 0.071210206 -0.15752393
0003f0 85 8f 2c bd 1a 11 05 bd 14 00 02 be f0 e5 81 3e
       -0.04212906 -0.032487012 -0.12695342 0.2537074
