artifacts/models/node2vec/model_node2vec_07-26-2023-22-09-04.pt (torch, 6652 bytes, 1 tensors)

embedding.weight f4 [469, 3]
0	0xbce66bc1	-0.028127553
1	0xbeb105c2	-0.34574705
2	0xbdc6402e	-0.0968021
3	0xbd3c8ff4	-0.046035722
4	0xbe45058c	-0.19240397
5	0x3f0f58bb	0.55994767
6	0x3f461e68	0.77390146
7	0xbecb964c	-0.39763105
8	0x3f04f97e	0.51943195
9	0x3b9b12b0	0.0047324523
10	0xbeb48c50	-0.352633
11	0xbe0be7ab	-0.13662593
12	0xbf16dcb9	-0.58930546
13	0xbecffdc0	-0.40623283
14	0xbee7e0ee	-0.45288795
15	0xbdde37b7	-0.108504705
16	0xbef4feb2	-0.47850567
17	0xbe83fe42	-0.2577992
18	0xbe928834	-0.2861954
19	0xbe83d1ad	-0.25745907
20	0xbd99a8a3	-0.07502868
21	0x3c5e5253	0.013569432
22	0xbe4deccf	-0.20109867
23	0xbee9d14b	-0.4566749
24	0x3e488589	0.1958219
25	0xbf24971e	-0.64293087
26	0x3f78f1bc	0.9724386
27	0xbdaae32c	-0.08344111
28	0xbe11b9db	-0.14231054
29	0xbe615d36	-0.22008213
30	0xbcf78fe8	-0.030219987
31	0x3f87349c	1.056293
32	0xbd84af09	-0.06478698
33	0x3ee9bdd8	0.45652652
34	0xbecea96c	-0.40363634
35	0xbef4f344	-0.47841847
36	0x3eea6cff	0.45786282
37	0x3f5b5619	0.8567825
38	0xbdf5b99b	-0.11998292
39	0x3e1c2989	0.1525022
40	0xbdbb7a8e	-0.09154235
41	0xbe36cd47	-0.17851745
42	0x3f8e5103	1.1118473
43	0x3de3c9b3	0.111224554
44	0x3f0c0776	0.54698884
45	0x3a9492d8	0.0011335267
46	0xbf34e7e1	-0.7066632
47	0x3ebe35b6	0.37150353
48	0xbf4249ec	-0.75894046
49	0xbe7b2ae0	-0.24528074
50	0xbe7cd3e2	-0.24690202
51	0x3f96a730	1.1769772
52	0x3edb3a60	0.42817974
53	0x3ed0b4b3	0.40762863
54	0x3eae2267	0.34010622
55	0xbd73e8b9	-0.059548113
56	0xbf3b1bb5	-0.7308915
57	0x3b590dd6	0.003311982
58	0xbe866a1d	-0.26252833
59	0x3def8425	0.116951264
60	0x3d323f62	0.043517478
61	0xbabb1d96	-0.0014275785
62	0xbc4073eb	-0.011746387
63	0xbf4bf7d8	-0.79675055
64	0x3f54ee7e	0.8317641
65	0x3e32245f	0.17396687
66	0xbe5dc994	-0.21658927
67	0xbe99e087	-0.30054113
68	0xbed44332	-0.41457516
69	0x3dd7a574	0.105296046
70	0xbe8bc499	-0.2729843
71	0xbde6a7b4	-0.112624556
72	0xbf8879da	-1.0662186
73	0x3eba678a	0.3640712
74	0xbe69bbb9	-0.22825517
75	0x3e1a7657	0.15084206
76	0x3def9fa6	0.117003724
77	0xbee6f0ab	-0.4510549
78	0x3de118e9	0.10991079
79	0xbe04e9cd	-0.12979813
80	0x3d4638cf	0.04839402
81	0x3f08f2ae	0.534953
82	0xbe8d7be7	-0.27633592
83	0xbe2fede5	-0.17180593
84	0xbe68fc4a	-0.2275249
85	0x3b65d18e	0.0035067531
86	0x3f85d1ee	1.045469
87	0xbbbb1f6c	-0.005710533
88	0x3f098bb7	0.5372881
89	0xbf1b9e69	-0.6078859
90	0xbdaba977	-0.08381932
91	0xbee74d51	-0.45176175
92	0x3da846cb	0.08216628
93	0xbc96d04f	-0.018409876
94	0xbf061392	-0.5237361
95	0xbe68654f	-0.22694896
96	0xbee0a57d	-0.43876258
97	0xbecf6c87	-0.40512487
98	0x3dec65f6	0.11542885
99	0xbf51cb43	-0.8195078
100	0xbeef9ef6	-0.46800965
101	0x3de125d5	0.10993544
102	0xbe6e2bd8	-0.23258913
103	0xbf493b66	-0.7860626
104	0x3cc51683	0.024058586
105	0x3e841519	0.25797346
106	0xbf28b7ea	-0.6590563
107	0xbf0b6fd4	-0.5446751
108	0xbec6aaaf	-0.38802096
109	0x3e890d0b	0.26767763
110	0x3ed2a851	0.4114404
111	0x3ea12c34	0.31479037
112	0xbc1581c2	-0.009125175
113	0x3e7af46c	0.24507302
114	0xbce818dd	-0.028332168
115	0xbe006504	-0.12538534
116	0xbe43c217	-0.19117008
117	0xbef68727	-0.48149988
118	0xbf0dbdba	-0.55367625
119	0xbef26099	-0.47339323
120	0x3f06c2d0	0.5264101
121	0x3f84c8f7	1.037383
122	0xbeecb1f2	-0.46229511
123	0x3da1faa7	0.07909136
124	0x3e95efe5	0.29284588
125	0xbf468ba4	-0.77556825
126	0xbe45cbcc	-0.19316024
127	0x3d748003	0.059692394
128	0x3e651276	0.22370324
129	0xbe6465e8	-0.22304499
130	0xbd6450a1	-0.055740956
131	0xbd3e4915	-0.046456415
132	0xbd9c0edd	-0.076200224
133	0xbec96aa3	-0.3933917
134	0xbf0ce9fe	-0.55044544
135	0x3c9e3e20	0.019316733
136	0xbee50c42	-0.44735914
137	0xbed58c5b	-0.41708645
138	0xbe3610bc	-0.17779821
139	0x3e26beb5	0.16283686
140	0x3e1118fa	0.14169684
141	0xbf682904	-0.90687585
142	0xbebcb924	-0.3686
143	0x3eb1a852	0.3469873
144	0x3f38ff2e	0.72264373
145	0xbd83a41c	-0.06427786
146	0x3db29d19	0.0872137
147	0x3e62e2e8	0.2215687
148	0xbe51c731	-0.20486142
149	0x3d814b3f	0.0631318
150	0xbf7c083f	-0.9845008
151	0xbd9d2e1f	-0.076748125
152	0x3e893d38	0.2680452
153	0xbe6e467b	-0.23269074
154	0xbe1ee9be	-0.15518853
155	0xbe9f5cb5	-0.31125417
156	0xbf0cffec	-0.55078006
157	0x3de6d203	0.11270525
158	0xbf02bd78	-0.51070356
159	0x3def5d0d	0.1168767
160	0x3f0fb7fd	0.5614012
161	0xbe45e481	-0.19325449
162	0x3ec6b317	0.3880851
163	0xbe566f2c	-0.20940846
164	0x3e383744	0.17989832
165	0xbe983eb9	-0.29735354
166	0xbe512d80	-0.20427513
167	0x3e9c6f93	0.30553874
168	0x3e626cfb	0.22111885
169	0x3d453e0c	0.048154876
170	0xbf891ff7	-1.071288
171	0xbe8eaeec	-0.2786783
172	0x3f1a8fe7	0.6037583
173	0xbd8fee3f	-0.07027864
174	0xbd09112b	-0.03346364
175	0xbe85aa76	-0.26106614
176	0x3b85965f	0.0040767635
177	0x3e4413bb	0.19148152
178	0xbdf433da	-0.119239524
179	0xbf48257c	-0.78182197
180	0xbd479f1a	-0.048735715
181	0xbf074e0a	-0.52853453
182	0xbf256947	-0.64613765
183	0x3ea963d2	0.3308397
184	0x3e91aa4b	0.28450236
185	0xbd9b7a67	-0.07591706
186	0xbd243519	-0.0400897
187	0x3f1aeef9	0.60520893
188	0xbef3f762	-0.47649676
189	0xbe9e2775	-0.30889478
190	0xbe7736ce	-0.24142
191	0x3e95a7b4	0.2922951
192	0x3ef918f7	0.4865186
193	0xbe5d5205	-0.21613319
194	0x3f3349c0	0.7003441
195	0x3f1b0e28	0.60568476
196	0x3f558ef3	0.8342125
197	0xbf022180	-0.50832367
198	0xbee84138	-0.45362258
199	0x3e3c633b	0.18397228
200	0xbe180da7	-0.14848958
201	0xb9de67cc	-0.00042420474
202	0x3f051704	0.51988244
203	0xbeeb177e	-0.4591636
204	0xbf0e32ee	-0.5554646
205	0xbe620e3c	-0.22075742
206	0xbe9431d1	-0.28944257
207	0xbed81ce9	-0.42209557
208	0x3dda9d9d	0.106745936
209	0xbe6ec14b	-0.23315923
210	0xbe52f20b	-0.20600145
211	0x3dd68571	0.10474671
212	0x3f3bbab6	0.73331773
213	0xbe99c516	-0.30033177
214	0x3d5aee82	0.053450115
215	0xbe1a81d8	-0.15088594
216	0xbec8bdfe	-0.39207453
217	0xbcb700c3	-0.02233923
218	0xbe256081	-0.16150095
219	0x3cf49d4d	0.029860163
220	0xbe083d61	-0.13304664
221	0xbd5321d6	-0.05154594
222	0x3cb8c7a2	0.02255613
223	0x3cfaeebd	0.030631417
224	0x3e1600c5	0.14648731
225	0x3e0dda40	0.13852787
226	0x3e7c9be4	0.24668843
227	0xbd887dbe	-0.066646084
228	0xbe1fd1a6	-0.15607318
229	0x3e897f71	0.26855043
230	0xbec80349	-0.39065006
231	0x3e2c7653	0.16842012
232	0xbec0d994	-0.37666
233	0x3eb4b4e8	0.3529427
234	0x3ecf6559	0.4050701
235	0xbdac2910	-0.084062696
236	0x3e46129a	0.19343033
237	0xbf078cb7	-0.5294909
238	0x3e9bfe54	0.30467474
239	0x3ef369e0	0.47541714
240	0xbe65e175	-0.22449286
241	0x3f185b23	0.59514064
242	0xbe7b9998	-0.2457031
243	0xbe031d01	-0.12804033
244	0xbef39090	-0.4757123
245	0xbe2e7f25	-0.1704069
246	0xbd622d29	-0.05521885
247	0xbdce9679	-0.10087294
248	0x3edabe31	0.4272323
249	0x3f08fc86	0.5351032
250	0x3e8f20f6	0.27954835
251	0x3df83773	0.12119951
252	0xbd838285	-0.06421379
253	0xbe536066	-0.20642242
254	0xbde41d92	-0.111384526
255	0xbf0121b5	-0.5044206
