artifacts/models/node2vec/model_node2vec_07-26-2023-22-08-32.pt (torch, 10364 bytes, 1 tensors)

embedding.weight f4 [469, 5]
0.7623114 -0.38672262 -0.30172357 -0.009221343 0.16025557 -0.20946547 0.881029 -0.49595332
0.42487708 0.5353814 0.30965114 0.78419834 0.11586113 1.5447332 0.7496305 -0.59444284
-0.41171587 0.8408843 0.28198388 -0.4581394 1.2896118 -0.5523818 0.6757665 0.047446657
-0.18814634 0.21465303 -0.42489132 -0.34916523 -0.15400895 -0.79974854 0.12842321 -0.3460516
0.08805799 0.24058047 -0.12721847 0.23672947 -0.2524626 -0.27976772 -0.24957173 -0.49777013
0.3445624 -0.44115043 -0.7694601 -1.3529036 0.058905203 0.21902326 -0.23870346 -0.20041384
0.06637281 -0.07924612 -0.4632188 -0.05448509 0.93974805 0.15707235 0.3827725 0.41967297
-0.20891753 -0.6933054 -0.0668631 -0.2701515 0.67988104 -0.11590675 -0.1272799 0.29673862
-0.08762897 0.040503178 -0.5391052 0.002731428 0.2519509 -0.24726851 -1.2816443 -0.13535899
-0.24902032 -0.5539429 -0.25886965 0.5434211 -0.39282247 -0.05960061 -0.07699428 -0.17491595
0.33584958 -0.3504589 -0.673092 -1.0693521 0.3118581 -0.508687 -1.0387272 2.2636333
0.31722084 0.51888263 0.6052079 0.15588683 -0.1437902 0.2933583 0.004455988 0.7579042
-0.2135093 0.6652559 -0.03094781 -0.15861447 0.26973942 0.13274391 0.02921445 1.1367084
0.16325293 -0.70328504 -0.45600972 1.0232073 -0.13802978 0.2255902 0.33436084 -0.3330073
-0.15871955 -0.22368108 0.054317035 -0.24183188 -0.7239663 0.6842516 -0.09078649 -0.026339768
0.029083382 -0.25806215 -0.08137883 0.7501929 0.08176792 0.44151163 -0.045575283 -0.77428675
-0.08557168 -0.15791407 0.54929495 0.03616764 0.43192184 0.22727196 -0.15032154 0.05563408
-5.25699e-05 -0.61854565 -0.14212571 0.23979774 -0.23503555 -0.1079906 -0.524459 0.15592846
0.07774469 0.51293033 0.35648513 -0.40699968 0.4897558 1.0395967 0.5340636 1.1208997
-0.60842365 0.9346993 0.2915996 0.396154 -0.16025549 0.14941727 0.13381742 0.0005733641
0.13874349 0.14771579 0.5886966 0.072180435 -0.108614 0.3834656 0.23858552 -0.72232836
0.03274203 0.073936135 0.26848727 -0.49341965 0.3632719 0.17334105 -0.08271616 0.62577605
-0.24404041 -0.90797174 -0.44179383 -0.5527786 0.4108484 0.10992579 -0.31308806 0.22237615
-0.45755082 0.30708498 -0.3792208 -0.46319976 -0.17534734 -0.08267989 0.53575075 0.872674
-0.26754433 0.06662537 -1.3033379 0.31354272 0.14869457 -0.67837614 0.1341444 -0.1322682
0.29867283 -0.24168886 -0.27708554 -0.15902808 -0.11955053 0.58052385 0.058499966 -0.045423646
0.6370832 -0.36373183 -0.46339127 -0.5990098 1.5963334 0.76649994 -0.07737302 0.15288907
-0.17678268 -0.28044942 0.17926316 -0.037677627 0.18360695 -0.46957532 -0.32640788 0.33286875
0.033217072 0.104721636 -0.54913956 -0.17168102 -0.12675494 -0.6498096 -0.09558424 0.453424
-0.5432823 0.10407008 0.25292432 0.049298186 0.21382096 0.21674155 -0.09367874 0.23034048
0.4518432 -0.48275384 -0.07962207 0.16253132 0.16312085 0.33168837 -0.3039848 -0.08565149
0.17466293 0.15486148 -0.5522468 -0.24713224 -0.07759114 1.0444157 -0.31365338 0.20572618
00000000: d726 433f 8200 c6be 837b 9abe 1e15 17bc
00000010: 091a 243e 1e7e 56be 1e8b 613f 98ed fdbe
00000020: 7d89 d93e c10e 093f 988a 9e3e 39c1 483f
00000030: 9a48 ed3d d1b9 c53f c9e7 3f3f 682d 18bf
00000040: 6ccc d2be 3244 573f 3160 903e 3f91 eabe
00000050: 0012 a53f e568 0dbf 09ff 2c3f 6d57 423d
00000060: 6fa9 40be 01ce 5b3e 5b8b d9be c9c5 b2be
00000070: 86b4 1dbe 52bc 4cbf 6081 033e ad2d b1be
00000080: bf57 b43d ba5a 763e 8f45 02be 3669 723e
00000090: c742 81be b73d 8fbe bb8f 7fbe badb febe
000000a0: 7c6a b03e 78de e1be 56fb 44bf f22b adbf
000000b0: 9546 713d a247 603e ae6e 74be 4939 4dbe
000000c0: 78ee 873d ca4b a2bd 042b edbe c22b 5fbd
000000d0: 5493 703f 93d7 203e c2fa c33e 60df d63e
000000e0: 7aee 55be 767c 31bf 85ef 88bd 4c51 8abe
000000f0: af0c 2e3f 8560 edbd a955 02be 20ee 973e
00000100: d176 b3bd a9e6 253d cc02 0abf c201 333b
00000110: b5ff 803e f533 7dbe ec0c a4bf 8c9b 0abe
00000120: 2fff 7ebe 34cf 0dbf 908a 84be a51d 0b3f
00000130: 0720 c9be c51f 74bd 2daf 9dbd 2b1d 33be
00000140: 7af4 ab3e 596f b3be c24f 2cbf 88e0 88bf
00000150: ddab 9f3e 5039 02bf 03f5 84bf 5edf 1040
00000160: c56a a23e 7ed5 043f e8ee 1a3f cca0 1f3e
00000170: bd3d 13be 0f33 963e 8903 923b 0206 423f
00000180: 2fa2 5abe 364e 2a3f 4386 fdbc d56b 22be
00000190: 491b 8a3e 05ee 073e 2453 ef3c a97f 913f
000001a0: c72b 273e 7d0a 34bf 1b7a e9be 75f8 823f
000001b0: ae57 0dbe 1e01 673e 5831 ab3e ef7f aabe
000001c0: 6187 22be a70c 65be 8a7b 5e3d c7a2 77be
000001d0: db55 39bf 1d2b 2f3f 44ee b9bd 7fc6 d7bc
000001e0: 4640 ee3c b920 84be f2a9 a6bd a40c 403f
000001f0: f075 a73d d00d e23e 26ad 3abd a837 46bf
00000200: 3440 afbd 3ab4 21be 989e 0c3f 8524 143d
00000210: dc24 dd3e fbb9 683e e4ed 19be 90e0 633d
00000220: 807e 5cb8 0259 1ebf 6789 11be 8a8d 753e
00000230: 29ad 70be 2d2a ddbd f242 06bf b6ab 1f3e
00000240: 9c38 9f3d 674f 033f 3885 b63e 4362 d0be
00000250: 46c1 fa3e 8111 853f 64b8 083f a479 8f3f
00000260: a7c1 1bbf 7448 6f3f 8b4c 953e b2d4 ca3e
00000270: 041a 24be d700 193e 6f07 093e d04d 163a
00000280: c612 0e3e cf42 173e d2b4 163f 56d3 933d
00000290: 0471 debd 9a55 c43e c34f 743e 83ea 38bf
000002a0: 821c 063d d46b 973d 2a77 893e 80a1 fcbe
000002b0: c6fe b93e 5180 313e 1767 a9bd dc32 203f
000002c0: bbe5 79be d670 68bf cd32 e2be e682 0dbf
000002d0: b95a d23e c620 e13d 144d a0be 93b6 633e
000002e0: 1a44 eabe 3e3a 9d3e 3b29 c2be 8528 edbe
000002f0: 418e 33be 1354 a9bd f626 093f 9067 5f3f
00000300: 92fb 88be e272 883d c7d3 a6bf ac88 a03e
00000310: 6443 183e 0faa 2dbf 265d 093e 5171 07be
00000320: a5eb 983e 497d 77be 28de 8dbe 42d8 22be
00000330: e9d6 f4bd 369d 143f a99d 6f3d 250e 3abd
00000340: e217 233f 0f3b babe 9f41 edbe b558 19bf
00000350: a754 cc3f 5739 443f bf75 9ebd f48e 1c3e
00000360: 8506 35be 1197 8fbe c390 373e db53 1abd
00000370: 7603 3c3e 2d6c f0be ef1e a7be c66d aa3e
00000380: a00e 083d 4c78 d63d 6994 0cbf 26cd 2fbe
00000390: 0ccc 01be ec59 26bf acc1 c3bd 3127 e83e
000003a0: 8c14 0bbf b222 d53d 4c7f 813e e5ec 493d
000003b0: e2f3 5a3e 7ff1 5d3e a4da bfbd 60de 6b3e
000003c0: fe57 e73e 832b f7be e510 a3bd 9c6e 263e
000003d0: 2709 273e 0fd3 a93e e5a3 9bbe 0c6a afbd
000003e0: d7da 323e 0294 1e3e 0c60 0dbf 3c10 7dbe
000003f0: 1be8 9ebd 6aaf 853f 2d97 a0be e2a9 523e
