artifacts/models/node2vec/model_node2vec_07-26-2023-22-02-03.pt (torch, 57276 bytes, 1 tensors)

embedding.weight f4 [469, 30]
00000000: b698 e4bd 0d94 cebe be00 16be 763d 5d3e
00000010: 2f99 1abe 6020 a63d 8b2f 41bd 1253 9abe
00000020: 91c7 873d 5965 c4be e663 abbd 3fb5 383e
00000030: 37b8 32be 5cfb 5d3d 3976 06be 02e7 74be
00000040: fa1b 56bc d472 8b3e 8638 b7bc 9552 fc3d
00000050: 1e6b 5f3d 7e72 efbd 3fe1 d73b 9b67 bfbd
00000060: 1d21 88bd f337 323e 8a36 d63d b7bd d23e
00000070: 748d 073d d7c3 85be 0afa a5be c494 2d3c
00000080: 7b8c 843e 3cdc 343e b3dd 763d ef73 b3be
00000090: 8dda 243e 5f2d b33e 2a42 8a3e fc99 c43d
000000a0: 3f91 4dbe b771 0abf 7d75 25be b5b1 d83d
000000b0: 2b74 90be 9957 a2be b76b c83d 63dd 8b3e
000000c0: 519a 293f 6aa4 203e 4630 273d 80c5 1b3c
000000d0: 0040 143f 4c4d c73d c07f 9b3d 702e f23a
000000e0: 72ed a7be 5c7f 4dbe 55b2 9c3e 6753 1cbf
000000f0: 5304 07be eeec 9d3d e89b 9dbd b925 bb3e
00000100: 8e0b 053b ea66 f9bd c228 03be fb27 aabe
00000110: edfe e0bc 1885 bebe 6f4c d63e 1445 d43d
00000120: b225 2f3e 8336 3dbe bee5 45be e2d6 283e
00000130: 556c 8abe b18d 88be 620e 73be 6cbd 4a3e
00000140: a9c9 bfbc 3851 303e fc95 c3bc ab3b a2bd
00000150: 43c2 e83d 8b45 903e 27c6 fdbc 62ec d33e
00000160: cd79 96bd 5cb9 a33e 3150 c4bd 3dec b3bc
00000170: 0d84 213c 293a e6be 73c7 f53e efe4 f53d
00000180: 6ec9 9a3f 63d7 0abe a907 fabc f74c fb3e
00000190: 8de2 41be 8459 403e 9b06 3d3f d321 77be
000001a0: 08f6 b5be 73dc 13be fbdb 583d a178 c3bf
000001b0: c8df 5fbe 7dff 073f fd1f 0abf 555d cfbc
000001c0: 4ffa 86bc 9a44 533d d301 17bf 0c0b 4fbd
000001d0: 6d37 393d afb9 7b3c a983 f3bd cb7e 513e
000001e0: 4c3c a83e ca13 eabb 5546 07bd 0d7e 13be
000001f0: 28c6 20be 7c8f c53e 28d0 babd cd6a de3d
00000200: 3af0 04be 754f c43e c136 a0bd e3b2 b93b
00000210: 9bfb e0be f3b8 fabd 467e 993d edee 593e
00000220: 2459 56be d410 ce3e e5a0 443c 05f3 cebd
00000230: eb44 8fbe b306 d03d a9f3 1abd 8337 703d
00000240: 07cb 0dbd 119a 84bd c3c1 393e 5654 253e
00000250: 643e b8bd 25e8 a83e 0e80 d0bc c1a9 013d
00000260: b159 e5bd eb42 febd 15dc a73c 8780 5bbd
00000270: 79dc 343f 4fee f3bd fff5 1fbf 51d9 773d
00000280: e5e0 033e 2f2c 80bc d85f e8bd bfa4 46be
00000290: 738e 03be 2c6a 71bd 0f47 1ebf 28fb 833e
000002a0: 2f5d 36be 823a cebd 85cb e6bd 4e00 05be
000002b0: 39ff a83d 360f 5d3f 1676 a13d 0788 5c3d
000002c0: 43c9 04be a623 1fbd cceb 1b3d c921 aebd
000002d0: 3316 b33d fa38 973d d081 8bbd f6b4 c2bd
000002e0: c412 1f3e 7af7 603e 4e49 c8bd 3ed6 25be
000002f0: 88c8 f1bc 9afd 3a3e 2241 94bd 15a3 c4be
00000300: 8e9d 74bd 51c2 473e 496a 1fbe 0037 8ebd
00000310: 11c9 bc3d 1917 8c3d 29c9 043e 8c83 fdbd
00000320: b9e0 55be a337 57be 1d33 63bd 0303 173e
00000330: 607d d0bc 81c3 b4bd 5555 69bc db53 dcbc
00000340: 9b21 ad3d 2060 a7bc 76fe 01bc 50ab 8f3e
00000350: 928a 183f f56f 85bd 5aad 613d 4549 2ebd
00000360: 8ba2 213e c3b1 af3e 51e4 333e ea59 c03c
00000370: e061 51be 353f 2d3e fd53 063e bcc0 a3be
00000380: 0c46 57bf c960 d8be 40bc 11bc 8e3e e53c
00000390: a74e f2bd 5e7f 2ebe 0e8f ae3e e97b 293e
000003a0: 9883 21be 33ef 0cbf 6a94 863c c39f ea3c
000003b0: c731 053e b408 c53d 1faf b93e c8a1 e3be
000003c0: 40f0 be3b bea2 c13e 4409 a8bf 40a0 9c3c
000003d0: b95a 403d af0e aebe 07c3 9cbe 0766 25bf
000003e0: 5c90 c0bd ce48 ed3d 57c0 99be b3b1 a73e
000003f0: e8b6 06be 6d40 b83d b8d0 25be 7611 99be
-0.1116194 -0.4034733 -0.1464872 0.21605477 -0.15097497 0.08111644 -0.04716448 -0.30141503
0.06629861 -0.38358572 -0.083686635 0.1803789 -0.17453085 0.054194793 -0.13131036 -0.23916247
-0.013068194 0.27236044 -0.02236582 0.12320439 0.054545514 -0.116917595 0.0065881307 -0.09345933
-0.06646941 0.17404155 0.10459621 0.41160366 0.033093885 -0.26125976 -0.32417327 0.0105945505
0.25888428 0.17662138 0.060270023 -0.35049388 0.16098996 0.34995553 0.27003604 0.09599683
-0.20074938 -0.54079765 -0.161581 0.1058077 -0.2821363 -0.31707457 0.0978617 0.27317342
0.66251093 0.15687719 0.04081752 0.009507537 0.57910156 0.0973154 0.07592726 0.0018476974
-0.32798344 -0.20068115 0.30604807 -0.6106476 -0.13185243 0.077112064 -0.076957524 0.36552218
0.0020301077 -0.121778324 -0.12808517 -0.33233628 -0.027465308 -0.37210917 0.4185519 0.10364738
0.17104223 -0.18477826 -0.19325921 0.16488221 -0.27035776 -0.26670602 -0.23735955 0.19798821
-0.023411589 0.17218482 -0.023875229 -0.07921537 0.113651775 0.28178057 -0.030978275 0.41391283
-0.073474504 0.31977355 -0.09585608 -0.021963233 0.0098581435 -0.44966248 0.4800373 0.12006556
1.2092721 -0.13558726 -0.03052123 0.49082157 -0.18934079 0.18784148 0.73838204 -0.24133997
-0.3553927 -0.14439563 0.052944165 -1.5271188 -0.2186271 0.5312422 -0.5395506 -0.025313059
-0.016476778 0.051579095 -0.5898716 -0.050547644 0.045218874 0.015364095 -0.118903466 0.20458524
0.32858503 -0.0071434723 -0.03302606 -0.14403553 -0.1570059 0.38586032 -0.09121734 0.108602144
-0.12982264 0.3834187 -0.078229435 0.005667077 -0.4394196 -0.122423075 0.07494788 0.21282549
-0.20932442 0.40247214 0.012001251 -0.10104946 -0.27982268 0.10157528 -0.03783003 0.05864669
-0.03461745 -0.06474698 0.1814032 0.16145453 -0.08996275 0.32989612 -0.025451686 0.03165603
-0.11198748 -0.12415107 0.020490685 -0.05358937 0.70648915 -0.11910688 -0.62484735 0.060509983
0.12878759 -0.015646068 -0.11346406 -0.19398783 -0.12847309 -0.058939144 -0.61827177 0.25777555
-0.17808984 -0.10069753 -0.11269287 -0.12988397 0.08251805 0.86351335 0.07883851 0.053840663
-0.129674 -0.038852356 0.03806667 -0.08502538 0.087444685 0.07383914 -0.06811869 -0.09507172
0.15534502 0.21969405 -0.09779607 -0.16195008 -0.029514566 0.18260804 -0.072389856 -0.38405672
-0.05972057 0.1950772 -0.15567888 -0.06944084 0.09218038 0.06840343 0.12967362 -0.12378606
-0.20886506 -0.21017317 -0.055468667 0.14747243 -0.025450408 -0.08826352 -0.014241536 -0.026895454
0.08453675 -0.020431578 -0.007934203 0.2806039 0.5958644 -0.06515495 0.05509696 -0.042550344
0.15784661 0.3431531 0.17567565 0.023480374 -0.20447493 0.16918643 0.13117976 -0.31982982
-0.8409126 -0.4226134 -0.00889498 0.02798393 -0.11831408 -0.17040774 0.34093517 0.16551174
-0.15772855 -0.5505249 0.016428191 0.028640633 0.1300727 0.096208006 0.3626642 -0.44459367
0.00582698 0.37819475 -1.3127828 0.019119382 0.04696152 -0.33995578 -0.30617544 -0.64608806
-0.09402534 0.11586152 -0.30029556 0.3275276 -0.1315571 0.08996663 -0.16192901 -0.29896134
