artifacts/models/node2vec/model_node2vec_07-26-2023-22-07-42.pt (torch, 10364 bytes, 1 tensors)

embedding.weight f4 [469, 5]
0	0xbe100cfe	-0.14067456
1	0x3f2a8cc3	0.66621035
2	0xbee43ef0	-0.44579268
3	0xbe9bd913	-0.30439052
4	0xbd583c6f	-0.05279201
5	0x3eb95e18	0.362046
6	0x3dad92a6	0.084752366
7	0x3f17bb4f	0.59270185
8	0x3ee7a1e2	0.45240694
9	0xbc285870	-0.010274991
10	0x3f5ee607	0.87069744
11	0x3ec223b8	0.37917876
12	0x3e2e9d5f	0.1705222
13	0x3e80825d	0.2509946
14	0xbddc4d90	-0.107569814
15	0x3ea1367d	0.31486884
16	0x3e911e8b	0.28343615
17	0xbf0a52dc	-0.54032683
18	0xbf962fb0	-1.1733303
19	0xbeb52075	-0.35376325
20	0x3f7b55e5	0.9817794
21	0xbf862299	-1.0479308
22	0xbf234524	-0.63777375
23	0x3d7db301	0.06193829
24	0xbd874b5b	-0.0660617
25	0xbe0d6ab6	-0.13810238
26	0x3e21c640	0.15798283
27	0xbea98fd5	-0.33117548
28	0x3ec5532c	0.38540018
29	0xbe3e4ea2	-0.18584684
30	0x3e61eb09	0.22062315
31	0x3d1bc437	0.038028922
32	0xbebb4e51	-0.36583188
33	0x3e904dcd	0.28184357
34	0x3d0f95c6	0.035054944
35	0x3e60f512	0.21968487
36	0x3d182dee	0.037153177
37	0xbef719ac	-0.48261774
38	0x3db4a811	0.088211186
39	0xbe0a00c5	-0.13476856
40	0x3e593b57	0.21214043
41	0xbedaa288	-0.42702127
42	0xbece1a5d	-0.4025449
43	0x3eadf9f5	0.33979765
44	0xbe986105	-0.2976152
45	0x3d39f8a0	0.045403123
46	0x3e81bf3a	0.25341207
47	0xbe561190	-0.20905137
48	0x3e70aca2	0.23503354
49	0xbeee5086	-0.4654581
50	0xbe0b657c	-0.13612932
51	0x3e7fa96f	0.24966978
52	0xbf7507c1	-0.95714957
53	0xbe9abf5b	-0.30224118
54	0x3e31640e	0.17323324
55	0xbf505e77	-0.8139414
56	0xbf3f4939	-0.74721104
57	0xbc124e66	-0.008929824
58	0x3fbe7b8c	1.4881454
59	0x3d373001	0.044723514
60	0x3ed10a50	0.4082818
61	0x3e600b77	0.21879373
62	0x3eeeeb0a	0.46663696
63	0x3ec69d8c	0.38792074
64	0xbddc58b9	-0.1075911
65	0x3f110f16	0.56663644
66	0x3e513a8a	0.20432487
67	0xbe283840	-0.16427708
68	0x3db8ab46	0.09017043
69	0xbe8ec41c	-0.27883995
70	0xbeb14976	-0.3462636
71	0x3c75730a	0.014981041
72	0x3f77198c	0.96523356
73	0xbed4f6a8	-0.41594434
74	0x3f148dbd	0.58028775
75	0x3f1ba92c	0.6080501
76	0xbdbd0494	-0.09229389
77	0x3e5e5ff5	0.21716292
78	0x3e6dd067	0.2322403
79	0xbf24c014	-0.6435559
80	0xbe3516b6	-0.17684445
81	0x3fcccc9c	1.5999942
82	0xbe86b4a4	-0.26309693
83	0x3e667a90	0.22507691
84	0x3e8c76eb	0.27434477
85	0xbe56c5d3	-0.20973901
86	0x3cdb082d	0.026737297
87	0xbf188bed	-0.5958851
88	0x3f22941c	0.63507247
89	0xbd7cfd12	-0.061764784
90	0xbe1ef774	-0.15524083
91	0xbdd3cc11	-0.10341657
92	0x3dc98b84	0.098410636
93	0xbdf54ba8	-0.11977321
94	0xbe5c7d83	-0.21532254
95	0xbf2138a7	-0.6297707
96	0x3df533fa	0.11972804
97	0xbf0e84bc	-0.55671287
98	0x3da3b7b7	0.07994025
99	0x3e931de6	0.28733748
100	0x3e535f75	0.20641883
101	0x3d876cce	0.0661255
102	0x3e31962f	0.17342447
103	0x3ee9baeb	0.4565042
104	0x3c987c50	0.018613964
105	0xbea9dea4	-0.33177674
106	0x3e95d6b2	0.29265362
107	0xbf6d371a	-0.92662203
108	0xbeed42ec	-0.4634012
109	0x3e3250e5	0.17413671
110	0xbe69b75b	-0.22823851
111	0x3d4eea02	0.050516136
112	0xbecea06a	-0.4035676
113	0x3f2e2553	0.680257
114	0x3e12c558	0.14333093
115	0xbef43357	-0.4769542
116	0x3ee405d3	0.44535694
117	0x3c968630	0.018374532
118	0x3df9e035	0.12200967
119	0xbea4f6aa	-0.3221944
120	0xbda367f6	-0.07978813
121	0x3e495b2c	0.19663686
122	0x3ef27b53	0.47359714
123	0x3eec8c49	0.4620078
124	0xbe9dc841	-0.30816844
125	0x3f093345	0.53593856
126	0x3e6d0835	0.23147662
127	0x3e4ef8e8	0.20212138
128	0xbec08e63	-0.37608632
129	0xbf4c5472	-0.79816353
130	0xbf99e6ec	-1.2023597
131	0x3e845e12	0.2585302
132	0xbec6e7ea	-0.3884881
133	0x3e0923a3	0.133925
134	0xbe691f9c	-0.22765964
135	0x3f8be2be	1.0928571
136	0xbe507f2f	-0.20361017
137	0x3e374b95	0.17899926
138	0xbebf462e	-0.3735823
139	0xbf902a5e	-1.126293
140	0xbf295907	-0.6615147
141	0x3d471627	0.04860511
142	0xbe47e288	-0.19520009
143	0xbdaf6ef1	-0.08566082
144	0xbf3e590b	-0.7435462
145	0xbe274e0a	-0.16338363
146	0x3ef61c38	0.48068404
147	0x3e2c19b1	0.16806675
148	0xbcca7561	-0.024714174
149	0xbea245ff	-0.31694028
150	0xbb6c494e	-0.0036054435
151	0xbbbd8f30	-0.0057848915
152	0xbeb735d0	-0.35783243
153	0x3eceb8c9	0.40375355
154	0x3dfbd6bb	0.12296816
155	0xbe5e3096	-0.21698222
156	0x3dd23f8f	0.10266029
157	0xbf2b5c4a	-0.66937697
158	0x3e92e6f0	0.28691816
159	0x3ec960b6	0.39331597
160	0x3e3aab58	0.18229425
161	0xbe8a3198	-0.26990962
162	0xbebc6d5f	-0.36802194
163	0x3e96c197	0.29444572
164	0x3f235900	0.6380768
165	0x3e4f8952	0.20267227
166	0x3f6ac6a5	0.9170936
167	0xbe84ccc5	-0.25937477
168	0xbef872a6	-0.4852497
169	0xbe033142	-0.12811759
170	0x3f9b8305	1.2149359
171	0xbe7cebfe	-0.24699399
172	0xbf0286a9	-0.50986725
173	0xbf16cc04	-0.58905053
174	0xbe121332	-0.14265135
175	0x3e9fa279	0.31178644
176	0xbe2deaab	-0.1698405
177	0xbf05f5b1	-0.5232802
178	0x3f219813	0.6312267
179	0x3e10762c	0.14107579
180	0xbea59670	-0.32341337
181	0x3ecdabff	0.40170285
182	0x3e1717eb	0.14755218
183	0x3c45d899	0.012075567
184	0xbf2ea55f	-0.68221086
185	0x3e27a1c3	0.16370301
186	0x3e9d95f9	0.30778483
187	0xbdbe2d82	-0.09286024
188	0x3e93c11f	0.28858277
189	0xbe263663	-0.16231684
190	0x3f42fa20	0.7616291
191	0xbc8f8fd5	-0.01752464
192	0xbd7d3802	-0.06182099
193	0x3f0dc753	0.5538227
194	0xbf826dc4	-1.0189748
195	0x3ecd069a	0.400441
196	0xbfb1b6ab	-1.3883871
197	0xbf259479	-0.64679676
198	0x3ebc5594	0.3678404
199	0xbe2e5cef	-0.17027639
200	0x3f85410d	1.0410477
201	0x3ee012b6	0.43764275
202	0xbd9b7332	-0.07590331
203	0x3dd6c48d	0.10486708
204	0x3d063b08	0.03277114
205	0x3bef7351	0.007307448
206	0x3e2464c2	0.16054061
207	0xbe2f7b64	-0.17136914
208	0x3e741c97	0.23839031
209	0x3d906034	0.07049599
210	0x3e022bbc	0.12711996
211	0xbd921545	-0.07132963
212	0x3b806b6a	0.0039190548
213	0x3ee35355	0.44399515
214	0xbea63bda	-0.32467538
215	0x3e9564e9	0.2917855
216	0xbf074ce1	-0.5285168
217	0x3e5b2c98	0.2140373
218	0x3ea33b72	0.3188129
219	0x3e2cc306	0.1687127
220	0xbe90917e	-0.28236002
221	0x3dbc57b3	0.09196415
222	0xbea69849	-0.3253806
223	0x3e0eb83c	0.13937467
224	0xbec19e2e	-0.37815994
225	0xbd05ee11	-0.03269774
226	0x3e47db62	0.19517282
227	0x3e562c6a	0.2091538
228	0x3f38a30f	0.7212381
229	0x3e9877a4	0.2977878
230	0xbe84c7ab	-0.25933585
231	0xbecbd68a	-0.39812118
232	0xbec4e3b3	-0.3845497
233	0x3c98977e	0.018626925
234	0xbd804504	-0.06263164
235	0xbbe93e20	-0.0071180016
236	0x3f0bd73b	0.5462529
237	0xbd1b83f5	-0.03796764
238	0xbf00f6d6	-0.5037664
239	0x3ead1d01	0.3381119
240	0xbf6f168e	-0.9339379
241	0x3e94e026	0.29077262
242	0x3efbcfb6	0.49181908
243	0x3f757c8e	0.9589318
244	0xbe90e536	-0.28299874
245	0xbca41a92	-0.020032201
246	0xbe944bb3	-0.28964004
247	0xbee949c3	-0.45564088
248	0x3eb21f70	0.3478961
249	0x3dcf7fa9	0.10131771
250	0x3fb9127b	1.4458765
251	0x3ed91eb2	0.4240623
252	0xbe3faffb	-0.18719475
253	0xbe80c855	-0.2515284
254	0xbeece318	-0.4626701
255	0x3e01d362	0.12678292
