artifacts/models/node2vec/model_node2vec_07-27-2023-02-59-33.pt (torch, 6652 bytes, 1 tensors)

embedding.weight f4 [469, 3]
00000000: dd5f 9c3e ecf9 b83c b9a6 5d3f cb85 223e
00000010: 320e 3abf dda0 853d 0cbb 093f a266 38be
00000020: 82dc 093f 6785 adbe 15fa f9be ad58 e33e
00000030: 10fd 86bd b351 683f 2252 753c 34cc 94bd
00000040: ff11 4a3e f241 633f d1e3 723e add0 04be
00000050: 51a1 88be 0388 673e 08f6 65be 6669 2b3e
00000060: 93de b83e a800 01bf 4a66 94be a9dd 8e3e
00000070: 1d55 a6be b803 703e ee2a 743f ee6c b73f
00000080: 98e2 9f3f fee1 3c3e eb33 083f 2a47 c63d
00000090: 3dc9 98bd a962 30bf 4103 593f 5955 233e
000000a0: 7e02 67be 6a97 22bf 93d7 49bf a515 b4bf
000000b0: 567e 013f 5a25 fa3e 00fd 9bbe d48b dabe
000000c0: 0c2b 8e3e 1b17 183d f7e5 483e 1e7e 60bc
000000d0: ef51 cdbc c29d 9a3f 7e88 3e3e 42d6 6cbe
000000e0: 9112 35be b56b 073f 3ea1 d4be d719 43bf
000000f0: dedb 7e3e a86d e6be 8c45 553d 2a30 66bf
00000100: 24b3 c3bd 9a20 023f c04a edbf 2ac7 5dbf
00000110: c9bf afbe 5175 263e 9212 b8be b781 e03e
00000120: f2bf 613e daae a3bd 70ae 07be ddf9 5b3e
00000130: 1a63 87be 87d5 3ebe 0504 433e fcf6 aebd
00000140: ec62 403e a224 8e3d 972a bb3e d14d 563f
00000150: 6757 263d 6a3a c23d b9ec 943e 61bb 2fbe
00000160: c374 64bd f591 5bbd 79c7 adbd 5ef4 81bf
00000170: 7da4 9e3e afe7 9c3e 7598 8cbc 5da7 473f
00000180: 7f65 0b3f c261 49bd de15 e8be 6e35 bf3e
00000190: 5c58 d13e 5012 f63d a4d5 863e 0393 28be
000001a0: c191 003f 72be 1cbe 6309 87bf a105 c73e
000001b0: 3ddf a73e d13e 7ebb d699 1bbe f505 843e
000001c0: c8fe 13bf 7d7c 023e b3c2 e83c 4411 5bbe
000001d0: 481a b63e 20ae e33d 2382 0b3e c152 aa3f
000001e0: a941 ac3d f6b0 0abf 6726 cf3c 5435 9a3e
000001f0: c329 983d 2bd1 0abe 9b63 213e b316 eebd
00000200: 415f 683e c8e6 41bf e1ee 60bd c848 62be
00000210: adb7 913c 23c4 f5bd 18c4 0b3f 294f ff3d
00000220: cf10 93be fb41 2b3f 0e98 ddbc 9f8b 2c3e
00000230: 787c abbc 91a1 c53f 8713 4abf 82ee 993e
00000240: 2564 ef3e 9e43 c1be 0d2d 0bbe a252 4c3e
00000250: 7347 48be 4942 bd3d 52fc d63e 594a 0a3f
00000260: bc45 28bf 6bf0 073f 8688 b13f b0d6 203f
00000270: 515f c03e 639b fcbc 3a6c 4b3e 1e23 943e
00000280: 9a6e 12be ca8f 493d cc46 d63d 3b89 2c3d
00000290: 4127 723f 163a 003e 8a78 debb d18a 033f
000002a0: 66e2 8b3e e8f4 4dbe e5a0 c9bc 09fd 463f
000002b0: cdad 8bbd ea3a a0be 7080 633e f0ec 65be
000002c0: b325 933e 8081 18bf c878 10be 4bd3 3f3b
000002d0: 926a dc3e fb7b 34be f655 f33c 5802 fc3e
000002e0: e83c a6bd fb3c 2abe e95b ba3e d32a 683e
000002f0: 67d0 453e e07c 003f f3e5 123e ed79 a8be
00000300: d98f 3c3d 5822 f6be 91c0 0abe e165 5a3e
00000310: 9fa4 64bc b8b4 1a3f 9cce ec3e 2289 e83e
00000320: d68f 83be 3862 363f 9001 b8be a39d 16bf
00000330: 964c 89bf fb23 7fbd 13b9 923f ca33 58bc
00000340: 80d0 013e 3e79 bfbd bbd3 813e 5f7a 863f
00000350: 962e e03b 5776 e83d bc69 a03c 8792 a33d
00000360: 50ee f53e 6648 d13e a04d 5ebf 50b6 d53e
00000370: 9097 9c3e faee 7abf 9c57 f7be 41e0 153d
00000380: 7060 eebe 33a5 31be d26a c3be 449f 5cbf
00000390: 5752 c7be a813 6ebe 14a2 c9be 7e9a 9b3e
000003a0: 78c7 8bbd e4d5 ab3e 6710 a83e 1391 00bf
000003b0: e04a 23bf 24d2 9e3e a803 cdbb 41b8 92be
000003c0: 0aa2 b53e 7759 f23d 653c 293e 2eea b3bb
000003d0: b1d7 313d 32bd 9cbe 21f8 373e aa8e b0be
000003e0: 11b7 503e cdb9 0fbd f303 c7be b620 da3e
000003f0: 3e0f 093d 7ba8 0bbe efbc 94bf 75f9 aabe
0.30541888 0.02258011 0.86582524 0.1587135 -0.7267791 0.06524823 0.53801036 -0.18007901
0.53852093 -0.3389084 -0.4882361 0.44403592 -0.065912366 0.90749663 0.014973195 -0.07265511
0.19733427 0.887725 0.23719718 -0.12970228 -0.26685575 0.22610478 -0.22457135 0.16739425
0.3610731 -0.50391626 -0.2898429 0.27903488 -0.3248681 0.23438919 0.95378006 1.4330118
1.2491026 0.18445584 0.5320422 0.09681542 -0.07460258 -0.68900543 0.8477059 0.15950526
-0.22559544 -0.6351229 -0.78844565 -1.4069105 0.505834 0.48856622 -0.3046646 -0.42684805
0.27767217 0.03713141 0.19618975 -0.013701944 -0.025063483 1.2079394 0.18606755 -0.23128608
-0.17682864 0.5289872 -0.41529268 -0.76211303 0.2488856 -0.45005536 0.05206828 -0.8991724
-0.09555653 0.50830996 -1.8538437 -0.86632025 -0.34326008 0.1625569 -0.35951668 0.43848965
0.22045878 -0.07992335 -0.13250136 0.21482034 -0.26442796 -0.18636142 0.19044502 -0.08543202
0.18787736 0.06940581 0.3655593 0.8371249 0.040610697 0.09483798 0.29086855 -0.17161323
-0.055775415 -0.053605992 -0.08485312 -1.01527 0.3098487 0.3064551 -0.01716254 0.7798975
0.54451746 -0.049165495 -0.45329183 0.3734545 0.40887725 0.120152116 0.2633487 -0.1646233
0.502224 -0.15307024 -1.054974 0.38871482 0.32787505 -0.0038794766 -0.15195403 0.25785795
-0.5781064 0.12742801 0.028413152 -0.21393305 0.35566926 0.11117196 0.13623862 1.3306504
0.08410961 -0.5417627 0.025286866 0.3011881 0.074298404 -0.13556354 0.15760653 -0.11625423
0.22692586 -0.7574277 -0.054915313 -0.22098076 0.017787779 -0.12000301 0.5459609 0.124662705
-0.2872376 0.66897553 -0.027050044 0.16850136 -0.020933375 1.5439931 -0.78936046 0.3006478
0.46756092 -0.377469 -0.13591404 0.19953397 -0.19558506 0.092411585 0.4198938 0.54019696
-0.65731406 0.53101224 1.3869789 0.6282759 0.3757272 -0.030835813 0.19865504 0.28933042
-0.14300004 0.049209394 0.10462722 0.04212306 0.94591147 0.12522158 -0.0067892717 0.5138369
0.27321166 -0.20112956 -0.024612853 0.7772985 -0.06820259 -0.31294948 0.22216964 -0.22453666
0.287397 -0.595726 -0.14108574 0.0029270228 0.43050057 -0.1762542 0.029704075 0.49220538
-0.08117086 -0.16624825 0.36398247 0.22672586 0.1931778 0.50190544 0.14345531 -0.32905522
0.04603562 -0.48073077 -0.13550021 0.21327926 -0.013955264 0.60432005 0.4625138 0.45417124
-0.25695676 0.7124362 -0.35938692 -0.58834285 -1.0726497 -0.062290173 1.146273 -0.013195941
0.12677193 -0.09349297 0.2535685 1.0506095 0.006841491 0.113506965 0.019581668 0.07986932
0.4803338 0.40875548 -0.86837196 0.41740656 0.30584383 -0.980209 -0.48309028 0.03659082
-0.4655795 -0.17348175 -0.38167435 -0.8618052 -0.38930008 -0.23249686 -0.39381468 0.30391306
-0.06825155 0.33561623 0.32825014 -0.50221366 -0.63786125 0.310197 -0.0062565394 -0.286562
0.35475188 0.1183347 0.16526945 -0.005490563 0.04341859 -0.30613095 0.17965747 -0.34483844
0.20382334 -0.035089303 -0.388702 0.4260308 0.0334618 -0.13638489 -1.1620158 -0.33393446
