artifacts/models/node2vec/model_node2vec_07-17-2023-02-09-20.pt (torch, 241148 bytes, 1 tensors)

embedding.weight f4 [469, 128]
00000000: b938 c63b 4641 eb3d f5d0 a1be aca8 2b3e
00000010: 0597 43bf a5cc 7cbd f17a 063d dced 09bb
00000020: 9ec5 05be dd45 ccbd 7cfc a33e 332c f93c
00000030: 05a7 513e a240 80bc 66d3 06bd d37e c03d
00000040: e147 033d 608c 7cbd a245 02bd 0e73 18bd
00000050: 1d35 0bbe 584e ed3c 14e1 813d f91a 8fbd
00000060: a966 b1bd 2041 283e af62 2a3e 2bb5 d73d
00000070: 262a 743e 588e 23bd d365 813c d24d 9c3e
00000080: 5a19 43be 4fd7 77be 8c8e 213e da0a 46bd
00000090: d07a 203c 83f5 603d b11e 97be 6da4 ca3d
000000a0: 4043 62ba bfd6 0e3e 7819 0b3d 3df6 74bf
000000b0: 913a 3c3e 9807 233e 9612 1abe 28ea 30bd
000000c0: 0edb bf3d bb9e 093e 4896 6ebb 1823 eebd
000000d0: 128a 8b3e dc14 b8be 4699 163e 3942 53be
000000e0: 9ef9 01bd 6c49 0fbf 211a ec3d a2bd c23b
000000f0: 3aa0 1abe 048e 05be 87a3 883b c9e7 ea3d
00000100: 1da0 4dbe 6de3 303f 99ec e63d 94e1 6b3d
00000110: c3c4 e03b dbeb d2bd 90a3 1dbe 5f34 853d
00000120: 1cd5 963d 2848 fabd 038d 8a3e dabe 12bc
00000130: 2a16 a2be bac6 5abe 862f bdbe 8403 ce3d
00000140: f29d ffbb 2068 87bd 448c e4bc 5971 bb3d
00000150: a597 d23c cb0c d83b 86fe 183e 9800 9fbd
00000160: b090 263e 0c62 70be cac6 2abe cb1e be3d
00000170: 9a12 17be 910b db3d d573 b5bd 599b 343e
00000180: 2ea1 893d 814c e83d f660 23be d25b 87bd
00000190: 8c39 15bd d661 38be b755 d63e 430b 44be
000001a0: 72c0 0dbf c0bd b13c f561 a63b b5b1 073e
000001b0: 022c b8bc 4b5d a2be 1ed9 99bc 1455 103e
000001c0: f98e 693d a33b 723d 61ba ecbd 5e3a 69be
000001d0: 9537 0abe fbb5 5ebe 295d 203e 07d7 2dbc
000001e0: cf1d 8dbd ed46 6abe a89f 9ebd 6d89 4e3e
000001f0: 76f1 993e 67e1 053d d5cd f23e 6e88 be3d
00000200: b0e5 16bd 32b1 35be 9770 e33c 8771 e43d
00000210: 2f50 5cbd 9996 353d 73d5 673d bfe1 17be
00000220: 5bda 0c3c c41b e7bd 0c81 c9bd e952 b33d
00000230: d947 363d a74a 9abb f30b 99bc 50e1 473d
00000240: 304b 6b3d 6c61 d23c b4ed 393c f2ec 443d
00000250: 79c7 8cbe fc96 b2bc 6806 c73e 78da f23c
00000260: 494c abbd d7bc cfbd f750 b9bd a0cc f1bc
00000270: 271e 933d 21e8 80be 2c0e cdbd 8a3f 773e
00000280: a5db 183d 8a7d c03d 0232 bf3c 7a2b 233d
00000290: fde0 13be 2aff 833d 9bf8 bcbd d55c ab3d
000002a0: e59f debd ae43 523e 2fe9 efbd 7c6f 80bd
000002b0: 6bb8 b23d 667c 21be cfa1 263e ebf3 2d3e
000002c0: ba07 afba 6ea8 df3c 89fe 063d aa2d e93a
000002d0: 6375 c5be 3f3c 643d 2be2 e4bd 755a 58be
000002e0: e3d4 adbd 9a2e f83c 42b2 d7bd e57d e9bd
000002f0: dfe6 863d 1c43 173e 2e58 51bf d920 47bd
00000300: ca0f 313c 97be f4bc 10ee 9b3d 02e7 f13d
00000310: 92ef 91bd 6906 0a3e 9f93 c4bd e9aa 0cbe
00000320: d795 c03e 0dce 8d3d 7e23 a73d eb19 b6bd
00000330: ac69 283d 6b53 4dbc 9d6c 69be 0b7c 643d
00000340: 07d1 d73e 88f5 3fbd 244b 21be 83fe 7d3c
00000350: 11df a13d 3762 05be dcd3 843b 8e0e 82bd
00000360: fe40 443d 0da2 bfbc af84 95be 9413 cebd
00000370: 4b7c 82bd deb1 80bd 9e28 7cbe de73 b83d
00000380: 2c69 50bd ddb6 0f3d 5083 e43c 7956 e03e
00000390: 0e4b 9cbd 576e b03d ae91 4dbe 4096 b63d
000003a0: 440a 393d 73f6 8ebd c5b7 8fbd 6df2 b23c
000003b0: d4de 953c cbba 5fbd 50a4 3ebe 7f52 09be
000003c0: c02e bcbe f36e 98bd 9368 093e 943a 7cbd
000003d0: 9aeb 8cbd b189 a7bd 01d7 d33d 4d41 bebe
000003e0: 69e9 4c3d e765 c23c 4dfa 8a3e e2e8 cd3c
000003f0: f1ba edbd 7835 76bc 35f2 fcbb ddf9 ec3d
0.0060492423 0.11487059 -0.31604734 0.16763562 -0.7640231 -0.0617186 0.03283209 -0.0021046316
-0.13063666 -0.09974263 0.32028568 0.030416584 0.20473869 -0.01565582 -0.03291645 0.0939919
0.03205097 -0.06165731 -0.03180469 -0.0372191 -0.1359448 0.028968021 0.06341758 -0.069875665
-0.08662159 0.16431093 0.16639207 0.10532602 0.23844203 -0.03993067 0.015795624 0.30528122
-0.1905264 -0.24203227 0.15777034 -0.048350193 0.009794906 0.05492164 -0.29515603 0.09894643
-0.0008631237 0.13949107 0.033959836 -0.9568823 0.18381716 0.15920866 -0.15046152 -0.04319206
0.09367953 0.13439457 -0.0036405493 -0.11627787 0.27253777 -0.35953414 0.14706907 -0.2063073
-0.031732194 -0.5597141 0.11528421 0.005943016 -0.15100184 -0.13042456 0.0041698846 0.11469991
-0.2008061 0.69097024 0.11275596 0.057588175 0.0068593933 -0.10298892 -0.15394425 0.065041296
0.07364866 -0.12220794 0.27060708 -0.008956635 -0.31657535 -0.2136487 -0.3695032 0.10059264
-0.007800811 -0.06611657 -0.027898915 0.09152479 0.025707075 0.006593322 0.14940843 -0.07763785
0.16266131 -0.23474902 -0.16677395 0.09283217 -0.1475319 0.106955655 -0.08859984 0.17637385
0.06720196 0.11342717 -0.15954956 -0.0660931 -0.036431834 -0.18006071 0.4186227 -0.19144921
-0.55371773 0.021696925 0.0050775954 0.13251384 -0.022481922 -0.31711802 -0.018780287 0.14094955
0.057021115 0.059138905 -0.115589865 -0.22776172 -0.13497765 -0.21749108 0.15660538 -0.010610349
-0.06890451 -0.22878619 -0.07745296 0.20169611 0.30067033 0.032685664 0.47422662 0.09303366
-0.03684014 -0.17743376 0.027763648 0.11154466 -0.053787407 0.044333074 0.056600045 -0.14832209
0.008596982 -0.11284593 -0.09839067 0.08756048 0.044502113 -0.0047086063 -0.018682456 0.04879886
0.05744475 0.02568122 0.011348177 0.04807753 -0.27495936 -0.02180051 0.38872075 0.02964519
-0.083641596 -0.1014344 -0.09048646 -0.029516518 0.071834855 -0.251771 -0.10012469 0.24145332
0.037318844 0.09398945 0.023339275 0.039836384 -0.14441295 0.06445153 -0.09227105 0.08367316
-0.10870341 0.2053363 -0.11714398 -0.06271264 0.08726581 -0.1577011 0.16272663 0.16987579
-0.0013353743 0.027301993 0.032957587 0.0017790098 -0.3856612 0.055721518 -0.111759506 -0.21128257
-0.084878705 0.030295659 -0.10532047 -0.114009656 0.06587004 0.14771694 -0.81775177 -0.04861531
0.010806987 -0.029876037 0.07613766 0.11811639 -0.071257725 0.13479008 -0.09598469 -0.13737072
0.3761432 0.06924067 0.081610665 -0.08891662 0.0411164 -0.012532095 -0.22795339 0.05578236
0.42151663 -0.046865016 -0.1575132 0.015502575 0.07903875 -0.13025747 0.004053576 -0.06350432
0.047913544 -0.023392702 -0.29202792 -0.10062328 -0.06371363 -0.062839255 -0.24624869 0.09006475
-0.05088155 0.0350865 0.027894646 0.43815973 -0.07631503 0.08614796 -0.20075104 0.08915377
0.045175806 -0.069806 -0.07017473 0.021844113 0.01829473 -0.0546215 -0.18617368 -0.13410376
-0.36754417 -0.07443037 0.13418798 -0.061579302 -0.06880875 -0.081805594 0.10343743 -0.37159196
0.050027285 0.023730231 0.2714409 0.025135461 -0.11607922 -0.015027396 -0.007719303 0.11571095
