artifacts/models/node2vec/model_node2vec_07-26-2023-22-04-35.pt (torch, 19772 bytes, 1 tensors)

embedding.weight f4 [469, 10]
0.13786362 0.63059765 -0.015447443 -0.26788393 -0.009609044 0.2918428 -0.040390003 -0.08574283
0.050529283 0.028126584 -0.8992848 0.67326 0.63860524 -0.48465437 0.7452704 -0.14902446
-1.0593061 -0.9515355 -0.080545776 0.64503056 0.25073895 0.460249 -0.45864323 -0.29521093
0.4694234 0.2788648 -0.16268274 0.14851622 -0.100865826 0.52131844 0.024456976 -0.45565584
0.114228666 -0.49683797 -0.27127463 0.21886198 0.6276979 -0.22473894 -0.47702226 -0.21617983
1.1834605 0.14054957 0.3941729 -0.28368732 -0.18081373 -0.86913866 -0.25607696 0.18166828
0.24389303 -0.7711954 0.04970813 -0.39919934 -0.41296715 -0.66590464 0.37412807 -0.1699746
-0.37125376 -0.080958985 -0.30924076 -0.39916945 0.07797527 0.30308366 0.1934479 -0.12098674
-0.098702095 0.13482392 0.022151891 -0.14596584 -0.27633774 0.19271168 0.31747434 -0.45837313
0.47793302 -0.5355116 0.2172932 0.26549885 0.3698723 -0.52588975 -0.30200043 -0.031581964
0.20509681 0.04202127 0.055772096 -0.35669264 0.21757679 -0.30676782 -0.48969823 0.55705094
-0.7189587 -0.45132822 0.24290693 -0.21284002 -0.115608454 -0.62252414 0.13456888 1.3949803
0.24436522 -0.26998922 0.07045874 -0.40621394 -0.5381654 -0.16277024 -0.045825895 -0.6265997
0.6410852 -0.42611867 -0.13421318 0.06895822 0.6977771 0.5125957 0.23466365 0.2778689
-0.23876765 -0.27801654 -0.39633527 0.00056248717 -0.43200368 0.65757245 -0.4500299 0.1474192
0.21471754 -0.14417796 0.2340349 -0.51622736 -0.18974264 -0.8429165 0.18695208 -0.35207307
-0.39262927 -0.58058256 -0.4275055 0.039617345 -0.32891545 -0.45054543 0.043066654 -0.13191114
-0.428915 -0.0356297 -0.60373515 0.2577713 0.017921478 -0.73846865 0.3877044 0.024553876
-0.3136407 0.8940086 0.5641542 0.49009755 0.86331046 0.42571577 0.08996492 0.28496322
-0.07805188 -0.37476793 -0.22203831 -0.2752487 -0.5923543 0.6137312 -0.03192324 -0.8223464
0.5879815 0.29614288 0.065414295 0.65683347 -0.30843192 -0.006375696 -0.326371 -0.33750638
-0.36819008 0.11939341 0.30051464 -1.2837238 -0.5552869 -0.47252083 -0.44996327 0.100528054
-0.24228927 0.5875285 -0.43153584 -0.5134995 0.76261187 0.400892 0.17073229 0.57701206
-0.2134554 -0.5144436 -0.5390194 0.32564667 -0.30416492 -0.29184622 0.24157496 0.4937382
-0.1928597 0.20925386 0.6781775 -0.787258 0.2821024 -0.23715916 -0.32446495 -0.24664626
-0.47168267 0.4191655 -0.3443957 -0.03512078 0.5045447 -0.09879727 -0.19318314 -0.1967282
-0.31533098 -1.1650873 -0.37176338 -0.91248715 0.13613883 -0.7653248 0.66840315 -0.46907184
-0.35812393 0.24071103 0.17300144 0.040858734 -0.21631218 0.62884235 -0.24137151 -0.32427603
-0.16548589 0.19704875 -0.0014912679 0.0283424 1.022149 -0.8662736 0.6204642 -0.39259627
0.37685737 -0.09394892 0.9439365 0.7417413 -0.17974477 -0.34744868 -0.7643012 -0.5389307
0.26251742 0.22308917 -0.31483144 -0.24097624 0.15039082 -0.20863853 -0.10712756 -0.06372616
-0.109303385 0.04797644 0.46518853 0.2363843 -0.44513753 -0.21179134 -0.272699 -0.3293905
00000000: 1f2c 0d3e d96e 213f 4617 7dbc 1528 89be
00000010: 406f 1dbc 6b6c 953e fd6f 25bd f099 afbd
00000020: cbf7 4e3d b969 e63c 8737 66bf c45a 2c3f
00000030: a27b 233f 9e24 f8be 0aca 3e3f de99 18be
00000040: 5897 87bf d597 73bf 2ff5 a4bd b920 253f
00000050: db60 803e c2a5 eb3e 49d3 eabe e325 97be
00000060: 4458 f03e 5ec7 8e3e 4e96 26be a314 183e
00000070: be92 cebd 2075 053f ff59 c83c b94b e9be
00000080: b8f0 e93d 8c61 febe 82e4 8abe 5b1d 603e
00000090: cfb0 203f f721 66be 433c f4be 3f5e 5dbe
000000a0: a27b 973f 3aec 0f3e 08d1 c93e 773f 91be
000000b0: 3c27 39be df7f 5ebf 851c 83be 4007 3a3e
000000c0: 18bf 793e 106d 45bf c19a 4b3d db63 ccbe
000000d0: 6e70 d3be ba78 2abf b78d bf3e d20d 2ebe
000000e0: f914 bebe d3cd a5bd ce54 9ebe f05f ccbe
000000f0: 80b1 9f3d c82d 9b3e 3517 463e e5c7 f7bd
00000100: 5324 cabd 480f 0a3e e277 b53c 1278 15be
00000110: 247c 8dbe 3656 453e ff8b a23e e2af eabe
00000120: a3b3 f43e 4a17 09bf 1c82 5e3e 77ef 873e
00000130: e75f bd3e b6a0 06bf cd9f 9abe 175c 01bd
00000140: e604 523e 7f1e 2c3d 4871 643d 6ba0 b6be
00000150: 73cc 5e3e ac10 9dbe bab9 fabe e49a 0e3f
00000160: ad0d 38bf 7e14 e7be 98bc 783e bcf2 59be
00000170: 20c4 ecbd be5d 1fbf 6dcc 093e b78e b23f
00000180: e03a 7a3e 073c 8abe ac4c 903d 46fb cfbe
00000190: 35c5 09bf 3ead 26be efb3 3bbd d768 20bf
000001a0: 291e 243f 3a2c dabe 2e6f 09be f839 8d3d
000001b0: 85a1 323f 7939 033f ab4b 703e d544 8e3e
000001c0: 827f 74be 2f58 8ebe 75ec cabe e073 133a
000001d0: 962f ddbe ab56 283f 526a e6be 0ff5 163e
000001e0: eade 5b3e 63a3 13be d8a6 6f3e 7a27 04bf
000001f0: e54b 42be 60c9 57bf 5e70 3f3e ec42 b4be
00000200: b406 c9be 0fa1 14bf 00e2 dabe cc45 223d
00000210: 9b67 a8be e4ad e6be a966 303d b713 07be
00000220: bf9a dbbe 73f0 11bd 638e 1abf 9afa 833e
00000230: 10d0 923c 480c 3dbf 3181 c63e 3625 c93c
00000240: 8495 a0be bfdd 643f 696c 103f 11ee fa3e
00000250: ea01 5d3f 6bf7 d93e 873f b83d b3e6 913e
00000260: aad9 9fbd 95e1 bfbe 035e 63be 66ed 8cbe
00000270: 88a4 17bf 7d1d 1d3f f1c1 02bd 4b85 52bf
00000280: f585 163f 0aa0 973e eef7 853d 3d26 283f
00000290: caea 9dbe 37eb d0bb 1a1a a7be a3cd acbe
000002a0: 6983 bcbe 8884 f43d 0edd 993e 1051 a4bf
000002b0: 4827 0ebf 40ee f1be 9661 e6be a7e1 cd3d
000002c0: ae1a 78be 4568 163f 44f2 dcbe b474 03bf
000002d0: 883a 433f b741 cd3e 72d4 2e3e 10b7 133f
000002e0: 0d94 5abe 93b2 03bf 2dfd 09bf 29bb a63e
000002f0: 81bb 9bbe de6c 95be 6d5f 773e 41cb fc3e
00000300: 037d 45be a546 563e 0a9d 2d3f be89 49bf
00000310: ba6f 903e dad9 72be 4520 a6be d690 7cbe
00000320: 6480 f1be dc9c d63e a254 b0be cfda 0fbd
00000330: d729 013f 3956 cabd cdd1 45be 1e73 49be
00000340: 1073 a1be 9521 95bf c557 bebe c298 69bf
00000350: fa67 0b3e 53ec 43bf 781c 2b3f 2f2a f0be
00000360: 055c b7be f47c 763e 4a27 313e 7d5b 273d
00000370: f180 5dbe d0fb 203f 182a 77be 8207 a6be
00000380: 2275 29be 26c7 493e a676 c3ba 522e e83c
00000390: c7d5 823f 1bc4 5dbf bed6 1e3f 6102 c9be
000003a0: 73f3 c03e 4b68 c0bd d3a5 713f c2e2 3d3f
000003b0: 030f 38be cbe4 b1be 3ea9 43bf 5df7 09bf
000003c0: af68 863e 7d71 643e 9631 a1be 7ac2 76be
000003d0: 0d00 1a3e 57a5 55be b265 dbbd dc82 82bd
000003e0: 74da dfbd f282 443d 312d ee3e ba0e 723e
000003f0: 11e9 e3be d4df 58be 349f 8bbe dfa5 a8be
