artifacts/models/node2vec/model_node2vec_07-26-2023-23-47-40.pt (torch, 6652 bytes, 1 tensors)

embedding.weight f4 [469, 3]
00000000: 5d6a 1bbf e8df bbbe 5bf5 a13e 6ab0 4f3e
00000010: 724c 30bd f5f0 533d 05d3 39be aa7f 893d
00000020: 8d2a a93e 00ef 71be a2b5 d5be 92fd 133f
00000030: b3f5 78be 2869 55bf fb7f 213e 5434 21bf
00000040: b7eb 2cbf 6c09 1cbd 15fd a3bd efb6 263e
00000050: 3d92 d0be ed83 cfbc fa28 a3be 39ae 653f
00000060: dde7 8ebe c449 fbbe cb98 92be e700 a83f
00000070: e701 ae3d 4164 c6be a6a5 b23e d151 e5be
00000080: 34d6 b33c 6985 acbe 77b7 a73e 00fe 95be
00000090: baa8 c8be b7f2 403e e4e5 c9be da02 d33e
000000a0: debb 93be 3be2 acbe 648e ae3f 179e 58be
000000b0: a506 55be e5fd 22be a179 0ebf 5a29 b9be
000000c0: 1c0a 1dbe 2808 783b 500e 99be efba f4be
000000d0: 5f22 debd 70fd 53be 3f14 83bf 2885 2b3e
000000e0: 977e fd3f efe0 e1bd 96ea 9cbe 68db 8cbe
000000f0: bf21 79be b3b2 e4be c0ea ecbd e949 af3e
00000100: 9e5c 933c c004 1ebe 6019 8f3f 215f 843e
00000110: f87c 7dbf 2cbf a0be c308 0dbd e4eb 87bd
00000120: 9eb9 7fbe 5cac 11be dda2 8fbe 3e5d 23bf
00000130: fdb9 b93e 4324 5b3e effc 9cbe a221 2ebf
00000140: 8aaa aebe 993b 13bf ec8a 303f 2e2a af3e
00000150: 45eb 04be 7171 8a3f 4e1e 86be c33d 593f
00000160: 0262 183d 9830 2ebc 98a7 94be 24b5 773e
00000170: d47c d03c d2a5 66bf c098 bbbd cc42 38bd
00000180: fe1d 1ebd 55d1 dabe dfbb c73e e624 80be
00000190: 561d 4ebe acef b0be 00df 073f 0782 99be
000001a0: 1736 a6be c259 92bc 57f2 40bf bde9 d2be
000001b0: b36c bfbf cb06 52be 6da8 2a3e 7724 133f
000001c0: e9df 61be 9927 20bf a6fd e4bd 66f7 5cbf
000001d0: 0643 903f 36fc e23f 62b0 81bf 35d1 e9be
000001e0: 6c97 413e 369a 233e 091d 0ec0 6007 acbe
000001f0: a6f8 07be 3c4a 8dbe 9b40 34be 2393 a0be
00000200: 8fa7 94be f109 2dbe e891 85be a817 91be
00000210: 4bcb 67bd 2dc5 193d 9d4c 0b3f 75ab f8be
00000220: a63a d4be ccf5 55bd 63f2 a1be 7bef 1d3d
00000230: abfe 61be cc63 ecbd aae5 a4be 54ed a33c
00000240: 40e6 6cbf 06c6 3ebe 2c8d 58be 7292 ecbd
00000250: 4b2a 453c ab4d 3bbf 9570 c4be f183 1bbf
00000260: 5401 943e c80f d5be f65f 7abd ee4b edbd
00000270: 9da7 b4bf 0708 4d3e bd9f c3bc 04b4 cbbe
00000280: 9aa8 33bf 6ec1 68be 3cef 55be a082 703e
00000290: 6c4b 30bf 30cc c3bd 78fd 0bbf b8eb c039
000002a0: 28d4 14be 2bc3 f9bd b4f0 e8be cbb9 153d
000002b0: 8ca6 3e3e 0412 8abf 2842 97be 98fa 9c3b
000002c0: ed1e c2be 9728 12bf e008 a53e 932f d3bd
000002d0: c79f 0cbf 7fde e53d 413f 38be fa3e 803e
000002e0: 693e f4bd c180 33be 11d9 983e 2d8a 00bf
000002f0: f211 c9be e904 91be e290 b1be bf2b ecbd
00000300: fe33 31bf be37 423c be94 663e cb5a 3f3e
00000310: 024e 193f 2fff 42bf 88f6 edbe b4cc 38be
00000320: 4ee9 2dbe 6ed8 5abe 942d 0abf 87e5 cdbe
00000330: a73c 15bf ba9f 17bf 835f a3bd 0930 2fbf
00000340: 5523 9e3c 8dc4 b4be 1c33 0ebe 04bf 1b3f
00000350: 51e2 e1be 811e 51be e2bc 9dbe 84a4 39be
00000360: 2af2 6fbe a9ca dbbe 7319 4ebe 7604 a5be
00000370: 849b 20bc 5c2b 363e 4ee3 dbbe bd23 a63f
00000380: ecf5 fdbe f3da 09bf 0e1d a1be c950 323f
00000390: 861f 6cbe a2db 1b3e 522c d5be c558 fbbd
000003a0: ae29 cabe be58 8cbe 2f16 083e 9a88 67bd
000003b0: 28b9 bb3e 2158 01bf 1908 403d de34 c0bd
000003c0: 357e 16be 71bd abbe e139 2e3e fcbd 12bf
000003d0: f479 24be d97a eabe 5ae1 5cbe 6267 21bf
000003e0: ca1b efbd 60b1 08bf e9a1 4b3f 34e1 23bf
000003f0: 1f14 073d 3a8f b2bd d1e7 d7be 26c0 433f
-0.6070917 -0.36694264 0.31632504 0.2028214 -0.043041654 0.051743466 -0.18146904 0.06713803
0.33040276 -0.23626328 -0.41740137 0.5780879 -0.24312477 -0.8336358 0.15771477 -0.6297047
-0.6754717 -0.038094923 -0.08007256 0.16280721 -0.4073657 -0.025331462 -0.318672 0.8971897
-0.27911273 -0.49079716 -0.28632197 1.3125275 0.084964566 -0.38748363 0.34892005 -0.44788983
0.021952726 -0.33695534 0.3275716 -0.2929535 -0.39191228 0.18842588 -0.39433205 0.41213113
-0.2885427 -0.3376635 1.3637204 -0.21154056 -0.20803316 -0.15917166 -0.5565434 -0.3616436
-0.15335888 0.0037846658 -0.29893732 -0.4779887 -0.108463995 -0.20702147 -1.0240554 0.16750014
1.9804257 -0.11029231 -0.30647725 -0.27511144 -0.2432928 -0.44667587 -0.115682125 0.34236076
0.0179885 -0.154315 1.1179619 0.25853828 -0.9901881 -0.31395853 -0.034432184 -0.066367894
-0.24973151 -0.14225906 -0.28053942 -0.6381415 0.3627471 0.21400551 -0.30661723 -0.6802007
-0.34114486 -0.57512814 0.6896198 0.34211868 -0.12980373 1.081587 -0.26194996 0.84859866
0.037202843 -0.010631703 -0.29034114 0.24190193 0.025450148 -0.9009677 -0.09159994 -0.044985577
-0.03860282 -0.42737833 0.39010522 -0.2502815 -0.20128378 -0.34557855 0.53074646 -0.29982015
-0.32463142 -0.017865065 -0.7536978 -0.41193953 -1.4955047 -0.20510404 0.16665812 0.57477516
-0.22058071 -0.6256042 -0.11181192 -0.86315 1.1270454 1.7733219 -1.0131953 -0.45667425
0.18905419 0.15976796 -2.2205222 -0.33599377 -0.13278446 -0.275957 -0.1760277 -0.31362256
-0.29034087 -0.16898324 -0.2608788 -0.2833836 -0.05659036 0.037541557 0.5441378 -0.4856831
-0.41450995 -0.052236363 -0.3163024 0.038558464 -0.22069804 -0.11542472 -0.3220647 0.020010628
-0.92538834 -0.18630227 -0.21147603 -0.1155137 0.012034009 -0.73165387 -0.38367143 -0.607482
0.28907263 -0.41613603 -0.06112667 -0.11586748 -1.4113652 0.20022593 -0.02387988 -0.3978578
-0.7017914 -0.22730038 -0.20892042 0.2348733 -0.68865085 -0.0956043 -0.5468364 0.00036796718
-0.14534056 -0.121954285 -0.45496142 0.03655414 0.1861822 -1.0786748 -0.2954266 0.0047906153
-0.3791422 -0.57093185 0.32233334 -0.103118084 -0.549313 0.112240784 -0.1799288 0.25048047
-0.11925966 -0.17529584 0.2985311 -0.5021084 -0.39271504 -0.2832406 -0.3468085 -0.115317814
-0.6921996 0.01185411 0.22517678 0.18686979 0.59884655 -0.7617063 -0.4647715 -0.18046838
-0.1698353 -0.21371624 -0.53975797 -0.40214178 -0.58295673 -0.592281 -0.07977202 -0.6843267
0.019303957 -0.35306206 -0.13886684 0.6083834 -0.44117978 -0.20421793 -0.3080817 -0.18129164
-0.23432222 -0.42928055 -0.20126896 -0.32229966 -0.009802703 0.17789978 -0.42946857 1.2979656
-0.49601686 -0.53849715 -0.3146748 0.6965452 -0.230589 0.15220502 -0.41635376 -0.12272791
-0.39484924 -0.27411455 0.13289712 -0.056526758 0.366647 -0.505251 0.046882723 -0.093850836
-0.14696582 -0.3354297 0.17014267 -0.57321143 -0.16062146 -0.4579685 -0.2157034 -0.63048375
-0.11675222 -0.5339565 0.7954393 -0.6401551 0.032978173 -0.087187245 -0.4216905 0.7646507
