artifacts/models/node2vec/model_node2vec_07-26-2023-22-03-43.pt (torch, 15996 bytes, 1 tensors)

embedding.weight f4 [469, 8]
0.1186996 0.14151658 0.18769343 -0.1606373 -0.07173555 0.27118546 -0.031755198 -0.0079940045
0.06583977 0.09381902 0.14241132 -0.5321041 -0.58434886 -0.07473784 0.40814546 0.046589404
-0.16565894 -0.44814214 -0.025248762 0.57765603 -0.039282344 0.2152777 0.060479432 0.6986831
-0.019283999 -0.5500726 -0.08077821 0.21325222 -0.18973172 -0.069436565 -0.10381029 0.15422113
-0.13315994 0.1862818 -0.053928267 0.08510385 0.079654366 -0.38665894 -0.61427367 0.2734373
-0.07793065 0.20973311 0.0848774 -0.06630732 -0.12776557 -0.10081031 -0.18055679 -0.076040335
0.11586554 0.28642458 0.72894627 0.06614061 -0.00072157336 -0.13242993 -0.24926211 0.17173815
0.055370275 0.1951328 0.082498215 -0.06124322 -0.16358064 -0.050064165 -0.014734279 0.008549337
-0.2552252 0.13723904 -0.40183774 -0.2262032 -0.1412535 -0.4616057 0.22777292 -0.29495725
-0.19311307 0.58862144 -0.4904096 -0.09750316 -0.1743031 0.29311594 0.12444889 -0.56404555
0.22086714 0.3536691 0.31422767 -0.43560869 -0.22244294 -0.04871084 -0.073124155 0.11556018
-0.022457158 0.01097601 0.2206991 0.018053746 -0.011462133 0.19432391 0.10252173 0.08573244
-0.15324649 1.808355 0.50644636 -0.102048494 0.16780709 0.313367 0.21462362 -0.14234024
0.7130443 0.059745304 0.6411063 0.117921636 -0.22881694 -0.74290985 1.087565 0.11918197
-0.20432347 0.48994792 -0.45634338 0.24046291 -0.52903986 0.07730154 -0.21618783 0.6068589
0.26066437 0.37135875 -0.49763343 -0.03732991 -0.22108315 -0.111150794 -0.18228105 -0.91239786
-0.8644637 0.26077098 -0.32236016 0.013601812 -0.050398126 0.25148293 -0.0913314 -0.13538168
-0.10244731 -0.16814528 -0.503906 0.09127801 0.17667812 -0.0047823703 0.064822584 0.5731253
-0.19005224 0.032486502 -0.014807114 0.0855791 -0.060297307 0.118074164 0.10794314 0.16478202
0.18098278 0.5370847 0.10761149 0.030700715 -0.088780284 -0.020137893 0.086553894 -0.05663813
-0.007249151 -0.041566897 0.07181166 -0.06878876 0.04506797 -0.024656702 0.17052633 -0.04293183
0.26114753 0.3177279 -0.36752316 -1.2939438 -0.4808908 0.23160532 -0.005302891 0.039249286
-0.0803779 0.5294536 -0.30186337 -0.21432321 0.15029958 0.19675685 0.025381202 -0.3147762
0.08797826 -0.07333043 0.114319324 0.06313911 -0.15611668 -0.37013522 -0.018045088 -0.007210817
-0.021307502 0.023177506 -0.09683546 0.23932435 -0.033981893 0.08656194 0.007183176 0.044874486
-0.16468208 -0.5407766 -0.26151532 0.21074258 -0.06708332 0.03720212 -0.041812617 0.0031706423
0.07364918 -0.30829155 0.3084919 0.14992699 -0.3558101 0.6833519 0.0866572 0.2736717
-0.113888875 -0.08944686 -1.4454159 -0.017168341 0.1798784 0.19329044 -0.07442979 -0.26475418
0.025353389 0.069166474 -0.08164211 -0.17968757 -0.24050616 0.06719736 -0.12260543 0.060392536
0.26820445 -0.09309223 0.06704111 0.33719888 0.06757467 0.19328576 -0.07739797 0.1099563
0.05233392 0.07338039 0.12977564 0.20910314 -0.2372835 -0.22583191 -0.05119149 -0.02864188
0.26348302 0.08579203 0.038460333 0.08057324 0.08587401 -0.088422276 -0.62117106 -0.019366786
00000000: c718 f33d b9e9 103e b532 403e 1b7e 24be
00000010: 17ea 92bd d2d8 8a3e bd11 02bd 49f9 02bc
00000020: 00d7 863d 3024 c03d 46d4 113e f937 08bf
00000030: e397 15bf 2710 99bd 71f8 d03e 88d4 3e3d
00000040: 7fa2 29be e372 e5be 7ed6 cebc 44e1 133f
00000050: 86e6 20bd c271 5c3e 48b9 773d e5dc 323f
00000060: 7af9 9dbc 8fd1 0cbf 0c6f a5bd ca5e 5a3e
00000070: 0849 42be c234 8ebd 7d9a d4bd 25ec 1d3e
00000080: 145b 08be a8c0 3e3e e3e3 5cbd ed4a ae3d
00000090: d421 a33d 29f8 c5be 0a41 1dbf f9ff 8b3e
000000a0: 1b9a 9fbd 47c4 563e 34d4 ad3d 22cc 87bd
000000b0: fad4 02be a375 cebd e1e3 38be 09bb 9bbd
000000c0: ea4a ed3d 3ea6 923e 399c 3a3f ba74 873d
000000d0: f827 3dba b69b 07be 913e 7fbe 20dc 2f3e
000000e0: f1cb 623d e5d0 473e d3f4 a83d 2cda 7abd
000000f0: af81 27be 1510 4dbd 0c68 71bc 8512 0c3c
00000100: e1ac 82be 6488 0c3e adbd cdbe d0a1 67be
00000110: c2a4 10be 9557 ecbe 4e3d 693e a304 97be
00000120: 6fbf 45be e5af 163f f816 fbbe bdaf c7bd
00000130: 837c 32be 4b13 963e 0fdf fe3d 4a65 10bf
00000140: ff2a 623e 1e14 b53e 73e2 a03e 1a08 dfbe
00000150: 15c8 63be 0585 47bd 1ec2 95bd d1aa ec3d
00000160: 13f8 b7bc b9d4 333c f2fe 613e 73e5 933c
00000170: accb 3bbc d9fc 463e eaf6 d13d 7d94 af3d
00000180: a6ec 1cbe 2d78 e73f 78a6 013f cdfe d0bd
00000190: 9fd5 2b3e a471 a03e 4bc6 5b3e a4c1 11be
000001a0: 128a 363f 7eb7 743d 8b1f 243f e680 f13d
000001b0: fd4e 6abe 572f 3ebf 5435 8b3f ad15 f43d
000001c0: 2c3a 51be 74da fa3e d7a5 e9be e93b 763e
000001d0: 286f 07bf 4550 9e3d 5860 5dbe 1b5b 1b3f
000001e0: cd75 853e bc22 be3e cfc9 febe 3fe7 18bd
000001f0: 9f63 62be 07a3 e3bd e2a7 3abe e892 69bf
00000200: 7e4d 5dbf c683 853e 640c a5be 22da 5e3c
00000210: 446e 4ebd 5fc2 803e f50b bbbd 7fa1 0abe
00000220: e5cf d1bd 472e 2cbe fcff 00bf f7ef ba3d
00000230: 1ceb 343e 6eb5 9cbb b4c1 843d 57b8 123f
00000240: 0e9d 42be 9110 053d 8a99 72bc 1844 af3d
00000250: 4ffa 76bd ded0 f13d 4b11 dd3d 9ebc 283e
00000260: 8d53 393e 627e 093f 6a63 dc3d 1180 fb3c
00000270: 70d2 b5bd 39f8 a4bc 2b43 b13d 62fd 67bd
00000280: 498a edbb 0d42 2abd fe11 933d 1fe1 8cbd
00000290: 3199 383d dafc c9bc 749e 2e3e 49d9 2fbd
000002a0: 21b5 853e 3bad a23e ff2b bcbe f39f a5bf
000002b0: 5237 f6be f229 6d3e e0c3 adbb dcc3 203d
000002c0: 2b9d a4bd 458a 073f d68d 9abe 8b77 5bbe
000002d0: 22e8 193e a17a 493e 3dec cf3c 592a a1be
000002e0: f22d b43d 442e 96bd 4020 ea3d 144f 813d
000002f0: 0ddd 1fbe 5d82 bdbe 4bd3 93bc b848 ecbb
00000300: 128d aebc c1de bd3c ab51 c6bd 7111 753e
00000310: 9930 0bbd 6347 b13d d960 eb3b 4fce 373d
00000320: 6ba2 28be 5670 0abf 56e5 85be e7cc 573e
00000330: fb62 89bd 4061 183d b543 2bbd 8dca 4f3b
00000340: 62d5 963d 64d8 9dbe a6f2 9d3e 7686 193e
00000350: be2c b6be 26f0 2e3f 5479 b13d b21e 8c3e
00000360: 923e e9bd ea2f b7bd 6303 b9bf 9fa4 8cbc
00000370: 0b32 383e eeed 453e a56e 98bd dc8d 87be
00000380: e9b1 cf3c 27a7 8d3d fb33 a7bd 0500 38be
00000390: 3f47 76be c59e 893d 8e18 fbbd 2a5e 773d
000003a0: 1852 893e 24a7 bebd d94c 893d 55a5 ac3e
000003b0: 9764 8a3d b4ec 453e d482 9ebd c530 e13d
000003c0: 185c 563d 7548 963d e8e3 043e 221f 563e
000003d0: 72fa 72be 7b40 67be 2bae 51bd 60a2 eabc
000003e0: 3fe7 863e bbb3 af3d 9588 1d3d 9503 a53d
000003f0: b7de af3d bd16 b5bd 1105 1fbf 18a7 9ebc
