artifacts/models/node2vec/model_node2vec_07-26-2023-22-06-28.pt (torch, 10364 bytes, 1 tensors)

embedding.weight f4 [469, 5]
000000 7d a1 0e 3f 97 72 ff be 2f 9e 9c 3e fd 64 38 be
       0.5571516 -0.49892113 0.30589435 -0.18007274
000010 64 8c 38 3e 76 9f 8c be 73 c3 85 bd 4d 22 b7 be
       0.18022305 -0.2746541 -0.065314196 -0.35768357
000020 aa 6b eb 3d 3c 8c 4a 3e 5d 62 e9 3e 04 d1 e2 be
       0.11495145 0.19780058 0.45582858 -0.4430009
000030 8a be 46 bf e7 bf 3f 3f 23 fb bc 3c c1 68 47 bd
       -0.7763449 0.74902195 0.02306897 -0.048683885
000040 ad a8 4b be 8d 72 9b be 7b 1e b1 3e 8d 18 26 be
       -0.19888563 -0.30360833 0.34593567 -0.16220303
000050 fe 85 70 3e f7 bb 04 be c3 d6 0e 3f a5 7c 3e bf
       0.23488614 -0.12962328 0.5579645 -0.7440894
000060 21 ec 08 bf aa 8a 1d be a8 9c a1 be 37 9e 93 3e
       -0.53485304 -0.15384927 -0.31564832 0.28831646
000070 b0 3e 06 bf 8e c6 11 3f 54 d9 01 3f c6 1a 96 be
       -0.52439404 0.56943595 0.5072224 -0.29317302
000080 b5 0e a1 be 4a c1 bb be 27 e5 9b 3f 89 bf a1 be
       -0.31456533 -0.36670905 1.2179307 -0.31591442
000090 f7 dc fc bc 63 ea 2d 3c 5b b4 22 bc c9 4c 23 3d
       -0.030867083 0.010614964 -0.009930695 0.03986815
0000a0 e3 24 fb 3c ec b3 f7 be fb 1a 59 3e 32 e1 2d bf
       0.030657237 -0.48379457 0.21201698 -0.67921746
0000b0 ba 71 5e be 5e 11 b9 be 25 dc 13 bd f8 b9 4b 3e
       -0.2172307 -0.36146063 -0.036098618 0.1989516
0000c0 9b 4d 60 be bb 36 a4 3c d0 ca d0 be 90 99 c9 3e
       -0.21904604 0.020045629 -0.40779734 0.3937497
0000d0 6c 82 df bf 00 3e 1b 3f e2 5f 82 bf 73 71 bb bd
       -1.7461677 0.6064148 -1.0185511 -0.09152498
0000e0 e0 96 30 bf c9 69 bb be 47 77 2b 3f 53 89 35 3f
       -0.68980217 -0.36604145 0.6697888 0.70912665
0000f0 cf d3 6d be 76 06 06 bf 0d 65 42 bf 2c 07 9c be
       -0.2322533 -0.5235361 -0.7593544 -0.30474222
000100 c1 01 87 3e df b5 d2 be e9 f4 1f 3e 37 da fc be
       0.26368526 -0.41154382 0.1562077 -0.49385235
000110 8a b9 8e bf 14 37 45 bd 42 d2 0f bf 28 f7 8a 3f
       -1.1150372 -0.04814823 -0.561802 1.0856676
000120 6e 46 ea 3f 2b 32 9f 3f 4d 35 6e bf fa 05 b9 3e
       1.8302743 1.2437185 -0.9305008 0.36137372
000130 0d 29 d4 be e6 24 dc 3e 2a fc 5b bf 8a 8f 8b 3c
       -0.4143757 0.429969 -0.85931647 0.017036218
000140 0e 96 02 bf 67 d8 04 be e8 a4 91 be 4e bb 58 bb
       -0.51010215 -0.12973176 -0.28446126 -0.0033070627
000150 5d 38 f7 3d c7 db b2 be e7 55 94 3e 3e 72 8a be
       0.12071297 -0.34933302 0.28971788 -0.27040285
000160 70 0c 5f be f1 f8 f9 3d 95 bf 50 be 71 cd 0c 3f
       -0.21782088 0.12205685 -0.20385583 0.5500098
000170 2c 39 2e be 3a 2a 38 be f3 c7 a7 3e 88 83 5f 3e
       -0.17013997 -0.17984858 0.32769737 0.21827519
000180 1a 9d 7a bc c5 9c 27 3e 93 7b d4 be 46 45 87 3f
       -0.015296245 0.16368397 -0.4150053 1.0568016
000190 df 9f 8c be 36 ef cb 3e 6c 32 da be 80 8f bf be
       -0.27465722 0.3983094 -0.42616594 -0.3741417
0001a0 b1 a2 8e be d8 bd c7 3b 77 14 f9 be e1 db 2a bf
       -0.278585 0.006095629 -0.48648426 -0.6674176
0001b0 73 8d 71 be 46 bc d5 bf f3 8d b0 be 86 31 16 be
       -0.23589115 -1.6698081 -0.344833 -0.14667329
0001c0 a9 0e 70 be 58 de ea be 1e 3b 97 3d 8b bb e5 be
       -0.23443092 -0.4587276 0.073843226 -0.44869646
0001d0 73 b9 0a 3e 4c b1 65 be 52 d4 90 be 4b f7 a8 3d
       0.13547306 -0.22430915 -0.28286988 0.082502924
0001e0 4c c0 de be a2 24 a0 3c 19 a6 c6 be be 43 1f 3c
       -0.43506086 0.019548718 -0.38798597 0.009720741
0001f0 62 4e 49 bf 23 f7 57 3e e0 bf c2 3e d2 9f 1d bf
       -0.7863523 0.21090369 0.38037014 -0.6157199
000200 c2 e4 83 be c4 f5 d0 3e ac 3b 96 be 54 6f 73 3d
       -0.25760466 0.40812504 -0.293424 0.059432343
000210 8f 86 89 bf 10 62 96 be 01 f6 b4 bd 55 23 08 be
       -1.0744189 -0.2937169 -0.08835984 -0.13294728
000220 f9 24 11 be cf 4a d2 be 73 53 1f be 41 13 2d 3e
       -0.1417426 -0.410727 -0.15559177 0.16901876
000230 3e 8c 33 3e a2 5a f0 bd 19 92 11 3e 7b 04 c4 be
       0.17533967 -0.11736037 0.14215888 -0.38284668
000240 a6 be be be ae 9a 62 be 57 fd 8e 3d 4d 63 7c be
       -0.37254828 -0.22129318 0.069819145 -0.24647255
000250 d1 27 f7 bd e7 51 a6 3e 4c de cb 3c 79 cc e7 be
       -0.12068141 0.32484362 0.024886273 -0.45273188
000260 b4 6b c7 be 37 d1 09 3f 91 c1 2d 3f 3f 6a 75 be
       -0.38949358 0.5383486 0.67873484 -0.23966311
000270 d3 87 6a be 5c 8f 46 bb bc b3 c2 be b9 b1 fc 3e
       -0.22903375 -0.0030297851 -0.3802775 0.49354342
000280 71 a6 f3 bd af bd d8 3c 2a f1 a3 3e 55 d7 8f 3e
       -0.118969806 0.026457636 0.3201993 0.28093973
000290 4a a1 8d be a0 6d 22 bf 8c 5c 1d be 63 49 3c be
       -0.27662116 -0.63448524 -0.15367335 -0.1838737
0002a0 6e f0 74 3c e8 4a 65 be df b8 9b be 35 18 a2 3e
       0.014949901 -0.22391856 -0.30414483 0.31659093
0002b0 51 3f c4 3c bb 25 04 bf 68 b6 04 bf 8d dc 08 bd
       0.023955973 -0.5162007 -0.5184083 -0.03341346
0002c0 5a b4 c4 be d3 2a 3b be 10 13 2d bf 7c a7 55 bf
       -0.38418847 -0.18278055 -0.6760721 -0.83458686
0002d0 fb e4 28 bf 36 fe a2 bc 94 49 9b bc 59 99 e8 bd
       -0.65974396 -0.019896608 -0.018955983 -0.11357374
0002e0 58 8b d1 3c 71 de 00 bf fc 8f 87 be 67 c5 b1 be
       0.02557914 -0.5033942 -0.2647704 -0.3472092
0002f0 55 62 71 be 35 2f 6c 3d 05 59 60 3e 30 23 a1 be
       -0.23572667 0.057662208 0.21908958 -0.31472158
000300 a6 6e b2 ba 1a 11 10 bd d9 65 5d be 26 30 d1 bd
       -0.0013613298 -0.03517256 -0.21620883 -0.10214262
000310 f0 d1 12 bf 81 f9 97 3e 54 a8 50 3e f4 95 ab be
       -0.5735159 0.29682544 0.20376712 -0.33512843
000320 93 0c ee be 1a a8 1c 3f 29 98 16 bc 3c 0a bd bd
       -0.46493968 0.61194 -0.009191551 -0.09230468
000330 8d 5f af 3b 56 48 43 3f 11 e7 c7 be 54 32 a0 be
       0.0053519667 0.7628225 -0.39043477 -0.31288397
000340 9b 6f 4c be 99 60 e5 bc 83 b2 5d be 7e dc f2 ba
       -0.19964449 -0.028000163 -0.21650128 -0.0018528847
000350 8a 7d 01 bf ed 91 28 bd 8d cf 5b be 4e dc 8a be
       -0.5058218 -0.04115479 -0.21465893 -0.27121204
000360 53 b1 32 bf 4c de 0d 3e d4 12 71 bf d3 a5 56 bd
       -0.69801825 0.13854331 -0.94169354 -0.052404236
000370 dd e2 ef be 7e 31 1f bf fe b8 30 ba 3e 45 c8 bd
       -0.4685277 -0.62184894 -0.0006741433 -0.09778832
000380 ad 70 9f 3e 81 56 75 be 3b 20 07 bf 59 94 eb 3e
       0.31140652 -0.2395878 -0.52783555 0.46011618
000390 e9 6a 6a 3f 0e b4 07 bf 4e 89 b4 be 31 a4 61 be
       0.9156938 -0.53009117 -0.35261005 -0.2203529
0003a0 cc 33 d2 3d f5 5f b5 bd cd 93 04 3e 47 af ec 3d
       0.10263786 -0.08856193 0.12947007 0.11556869
0003b0 7f bc 8b be 56 6e 99 3e 9d db 04 3f 40 9e f7 be
       -0.2729225 0.29966992 0.51897603 -0.48362923
0003c0 3e a1 f4 be f2 89 05 bf a6 4e df 3d 37 be 4d 3f
       -0.47779268 -0.5216361 0.10903673 0.8036837
0003d0 64 4b 0a 3e b8 09 e9 be 9c f3 1d 3e d2 7d 63 3d
       0.13505322 -0.45515227 0.15424961 0.055539913
0003e0 73 a8 88 be 28 2e d0 3c 5e 8b 31 bc 54 b1 94 3e
       -0.26691017 0.025412634 -0.01083645 0.2904154
0003f0 42 2b 68 3f 7f 16 cf 3e fc 68 30 bf af fd d6 be
       0.90691006 0.4044685 -0.68910193 -0.4199042
