artifacts/models/node2vec/model_node2vec_07-26-2023-22-09-46.pt (torch, 19772 bytes, 1 tensors)

embedding.weight f4 [469, 10]
-0.487826 0.040493023 -1.1428397 -0.29760107 -0.33020046 0.22426558 0.12732196 -0.86811006
-0.36659142 0.51851076 0.43180287 0.5563963 -0.25063786 0.13300788 0.059114125 -0.014445912
1.6096514 -0.5151707 0.079457186 -0.00088921527 -0.5795598 0.21611734 0.31416368 -0.8104177
-0.036794826 0.3202312 -0.54733545 -0.767323 0.21771583 0.117295995 -0.063246064 -0.36524522
0.030236203 0.14015998 0.35090956 0.32998252 -0.17960894 -0.75808877 0.3269775 0.095297135
0.30053708 0.4086964 -0.36913696 0.27426407 0.10275896 0.9453508 -0.13723855 0.39264062
0.027687706 0.11774498 0.26503393 -0.38280368 0.21395443 -0.071598545 -0.4449285 1.4938338
0.97676533 0.06710911 0.2976443 0.19689234 -0.52697414 0.4290761 0.10743105 0.13186042
0.2807149 0.19791938 -0.057524934 -0.17046633 0.077048615 0.101294264 -0.19224791 -0.2700668
-0.12729052 0.43692052 0.26435018 0.2662069 0.43146807 -0.20852661 -0.030346962 -0.0019488474
-0.5440601 0.93809175 0.09325801 0.425383 -0.34236127 0.043098047 -0.07948863 1.0901581
0.19951297 0.21995047 0.17317306 -0.17001817 -0.08433768 1.3591299 0.80873436 0.17685781
-0.049824208 -0.22891438 -0.21089691 -0.40933645 0.6444116 0.12851518 0.12628403 -0.76353264
-0.6673209 -0.33355322 0.23983945 -0.15451954 -0.2792052 -0.6775762 -0.13135578 1.0174817
0.024736874 -0.19435605 -0.5978571 -0.014142278 -0.866347 -1.3803961 -0.37163267 -0.15954638
0.14501815 -0.09383288 0.100460015 0.076437436 -0.2735865 0.60559994 0.65794474 -0.34224087
-0.10530549 0.119937375 0.27746922 -0.10845714 0.25130707 0.17273863 -0.15245087 0.6433554
-0.11775853 0.005172586 -0.043396674 0.00069135125 -0.33634168 0.32206705 0.024397895 -0.06141925
0.12286454 0.5044575 0.825113 0.40433893 0.21730559 -0.54901963 0.3402568 0.46263412
-0.12937866 0.7367986 0.02548857 -0.42447707 -0.16062033 -0.109453835 0.19945371 0.077949464
-0.3068807 -0.025105353 -0.6351329 0.39480504 0.059913035 0.35827363 -0.103674956 0.21143247
0.6451537 -0.0556421 -1.053183 -0.31662035 0.121069014 0.34869078 -0.27589795 0.2782292
-0.6215165 -0.30236274 -0.06399351 -0.012755699 -0.35469115 0.22506042 0.5808704 0.09172308
-0.68334424 -1.0343056 0.56008214 -0.38148674 -0.11279745 -0.068292215 -0.39664316 0.5890425
-0.25701338 -0.033448275 -0.09367934 0.53435767 0.07378776 0.6027792 -0.15204836 -0.627909
0.15428782 -1.023939 0.05002412 -0.6671224 0.023643564 0.06978999 0.47461957 -1.1516707
0.035263434 0.0022504264 1.263621 -0.19545437 -0.108472764 0.26726606 -0.40610495 -0.2829268
-0.57827157 0.48082116 -0.11841581 -0.54804736 -0.19398937 0.98110765 0.4815565 -0.9923316
-0.29846615 0.30496275 0.5578676 -0.71886957 -0.91088855 0.9699395 -0.09936049 0.024706561
-0.13249946 1.0922537 0.035483666 -0.06377844 -0.108437076 -0.32020336 -0.050911926 -0.04583667
-0.86069804 -0.056591526 1.4587996 0.24591969 -0.46840093 -0.12776345 0.25963703 0.20467195
-0.44800794 0.31802818 -0.62267363 0.14380538 0.048578095 0.40417895 -0.23509295 0.25465536
00000000: 54c4 f9be 03dc 253d 9248 92bf 2b5f 98be
00000010: 0910 a9be e0a5 653e b060 023e 763c 5ebf
00000020: dfb1 bbbe 1fbd 043f 4415 dd3e fd6f 0e3f
00000030: 9b53 80be 3833 083e a721 723d 8cae 6cbc
00000040: 0f09 ce3f 3ae2 03bf 73ba a23d 3a1a 69ba
00000050: 085e 14bf dd4d 5d3e 10da a03e 8977 4fbf
00000060: 2cb6 16bd 58f5 a33e 2d1e 0cbf 486f 44bf
00000070: e6f0 5e3e e238 f03d 2787 81bd 6c01 bbbe
00000080: eab1 f73c 1986 0f3e 6baa b33e 78f3 a83e
00000090: 68eb 37be 1b12 42bf 9869 a73e 252b c33d
000000a0: ffdf 993e a840 d13e 85ff bcbe 576c 8c3e
000000b0: 4a73 d23d 8302 723f 4388 0cbe 3108 c93e
000000c0: 54d1 e23c 4824 f13d 87b2 873e d8fe c3be
000000d0: df16 5b3e 42a2 92bd abcd e3be f235 bf3f
000000e0: 4b0d 7a3f 8070 893d d564 983e 259e 493e
000000f0: c7e7 06bf ddaf db3e cf04 dc3d 6b06 073e
00000100: ddb9 8f3e 61ab 4a3e 449f 6bbd ba8e 2ebe
00000110: aacb 9d3d 5e73 cf3d a3dc 44be 3246 8abe
00000120: 7258 02be 0cb4 df3e e858 873e 454c 883e
00000130: 62e9 dc3e 0088 55be 319a f8bc 7870 ffba
00000140: 8647 0bbf c826 703f 0efe be3d cdcb d93e
00000150: fa49 afbe 9487 303d efca a2bd 4d8a 8b3f
00000160: 214d 4c3e b23a 613e 4754 313e 3e19 2ebe
00000170: 3cb9 acbd f8f7 ad3f 3709 4f3f 371a 353e
00000180: 7814 4cbd 8868 6abe 5cf5 57be 8c94 d1be
00000190: 29f8 243f 7c99 033e 9a50 013e e076 43bf
000001a0: 8bd5 2abf 7dc7 aabe 7998 753e 5f3a 1ebe
000001b0: fcf3 8ebe a275 2dbf 2182 06be d73c 823f
000001c0: fca4 ca3c 4605 47be 2a0d 19bf 03b5 67bc
000001d0: ebc8 5dbf d2b0 b0bf a346 bebe 2060 23be
000001e0: a37f 143e 742b c0bd fbbd cd3d 3b8b 9c3d
000001f0: 8813 8cbe 9908 1b3f 116f 283f 323a afbe
00000200: 68aa d7bd baa1 f53d 7210 8e3e c71e debd
00000210: 52ab 803e 65e2 303e 151c 1cbe f1b2 243f
00000220: 622b f1bd cc7e a93b b6c0 31bd cc3b 353a
00000230: fa34 acbe f9e5 a43e 18de c73c c092 7bbd
00000240: 67a0 fb3d 2024 013f 9b3a 533f 8305 cf3e
00000250: 5b85 5e3e 8d8c 0cbf 2436 ae3e 61de ec3e
00000260: d77b 04be d59e 3c3f 68cd d03c 0f55 d9be
00000270: a879 24be 5529 e0bd 983d 4c3e f8a3 9f3d
00000280: 781f 9dbe bea9 cdbc 1298 22bf e323 ca3e
00000290: 5f67 753d a46f b73e 8953 d4bd c181 583e
000002a0: cb28 253f f8e8 63bd b3ce 86bf 101c a2be
000002b0: 08f3 f73d 9987 b23e 7f42 8dbe 0f74 8e3e
000002c0: b51b 1fbf 4acf 9abe 080f 83bd 48fd 50bc
000002d0: 149a b5be 3d76 663e ecb3 143f 4fd9 bb3d
000002e0: a6ef 2ebf 2064 84bf 8b61 0f3f 3b52 c3be
000002f0: 5902 e7bd cadc 8bbd d014 cbbe 7dcb 163f
00000300: 4297 83be 0f01 09bd f4da bfbd aacb 083f
00000310: 0a1e 973d bd4f 1a3f 91b2 1bbe a5be 20bf
00000320: a0fd 1d3e 6f10 83bf 17e6 4c3d 89c8 2abf
00000330: 26b0 c13c 0eee 8e3d 5601 f33e f269 93bf
00000340: 6470 103d e47b 133b 55be a13f 3125 48be
00000350: f826 debd 19d7 883e fdec cfbe c8db 90be
00000360: 9b09 14bf 312e f63e fd83 f2bd d54c 0cbf
00000370: 26a5 46be df29 7b3f 938e f63e 7209 7ebf
00000380: 8ed0 98be 1424 9c3e 69d0 0e3f d607 38bf
00000390: fe2f 69bf f44d 783f 837d cbbd 6a65 ca3c
000003a0: f0ad 07be f8ce 8b3f 5257 113d 459e 82bd
000003b0: 4214 debd b2f1 a3be 0689 50bd 3bbf 3bbd
000003c0: b556 5cbf 84cc 67bd f2b9 ba3f 5fd2 7b3e
000003d0: 3fd2 efbe 6cd4 02be 25ef 843e 8695 513e
000003e0: 4c61 e5be 97d4 a23e 8a67 1fbf b841 133e
000003f0: d3f9 463d 8bf0 ce3e 35bc 70be 3062 823e
