artifacts/models/gae/gcn_gae.pt (torch, 531295 bytes, 4 tensors)

encoder.encoder.module_0.bias f4 [512]
000000 98 55 89 bd 17 49 9d bd 00 00 00 00 00 00 00 00
       -0.06705779 -0.076799564 0.0 0.0
000010 00 00 00 00 46 f4 8d bd 76 53 74 bd c1 10 36 bd
       0.0 -0.06931357 -0.059649907 -0.04444957
000020 00 00 00 00 3d 13 42 bd 42 1a 48 bd 00 00 00 00
       0.0 -0.04738163 -0.048853166 0.0
000030 00 00 00 00 1d 38 93 bd 76 55 33 bd 00 00 00 00
       0.0 -0.07188437 -0.043782674 0.0
000040 00 00 00 00 ac ee 8e bd 00 00 00 00 c1 dd 35 bd
       0.0 -0.06979117 0.0 -0.044400934
000050 9e 28 67 bd 90 a0 87 bd b5 cd 36 bd 3d 85 93 bd
       -0.05643522 -0.06622422 -0.04462977 -0.072031476
000060 00 00 00 00 c0 99 9a bd 2c 8a 85 bd 00 00 00 00
       0.0 -0.07548857 -0.06520495 0.0
000070 00 00 00 00 29 b1 c9 bd a4 00 b7 bd 00 00 00 00
       0.0 -0.09848244 -0.08935669 0.0
000080 bc 24 9e bd d2 ed a0 bd 15 3c 91 bd 00 00 00 00
       -0.0772185 -0.078578606 -0.07091538 0.0
000090 70 53 74 bd 20 c5 89 bd 00 00 00 00 00 00 00 00
       -0.059649885 -0.06727052 0.0 0.0
0000a0 54 33 aa bd 00 00 00 00 23 aa 85 bd ac 22 99 bd
       -0.08310571 0.0 -0.06526592 -0.07477316
0000b0 54 5f b5 bc 00 00 00 00 00 00 00 00 07 c9 8b bd
       -0.022140183 0.0 0.0 -0.06825452
0000c0 00 b2 93 bd 00 00 00 00 00 00 00 00 da 27 8a bd
       -0.07211685 0.0 0.0 -0.06745882
0000d0 53 48 40 bd 00 00 00 00 00 00 00 00 00 00 00 00
       -0.046943974 0.0 0.0 0.0
0000e0 00 00 00 00 00 00 00 00 3a 61 96 bd 00 00 00 00
       0.0 0.0 -0.07342763 0.0
0000f0 00 00 00 00 d4 e7 88 bd 6b c7 32 bd 84 a8 92 bd
       0.0 -0.06684843 -0.04364721 -0.07161048
000100 00 00 00 00 00 00 00 00 cf 50 8e bd 6d d7 9a bd
       0.0 0.0 -0.06949007 -0.075606205
000110 00 00 00 00 a4 7a 36 bd 00 00 00 00 85 fb 85 bd
       0.0 -0.044550553 0.0 -0.06542114
000120 00 00 00 00 0c 2f af bd 00 00 00 00 00 00 00 00
       0.0 -0.08553895 0.0 0.0
000130 00 00 00 00 87 b6 86 bd 29 cc b1 bd 00 00 00 00
       0.0 -0.06577783 -0.086815186 0.0
000140 00 00 00 00 00 00 00 00 63 2a 9d bd ba 50 a9 bd
       0.0 0.0 -0.076741 -0.082673505
000150 00 00 00 00 00 00 00 00 00 00 00 00 69 22 a3 bd
       0.0 0.0 0.0 -0.079655476
000160 2c 03 8a bd 93 73 8a bd 00 00 00 00 58 0c 37 bd
       -0.06738886 -0.06760325 0.0 -0.044689506
000170 bb 10 a0 bd cf a9 be bd 00 00 00 00 00 00 00 00
       -0.07815691 -0.09309732 0.0 0.0
000180 00 00 00 00 00 00 00 00 46 9b 89 bd 00 00 00 00
       0.0 0.0 -0.06719069 0.0
000190 05 cc 8b bd 43 77 89 bd 0d 81 c2 bd 0c 53 74 bd
       -0.06826023 -0.067122005 -0.09497271 -0.059649512
0001a0 b5 b4 90 bd 00 00 00 00 98 ce 2a bd 00 00 00 00
       -0.07065717 0.0 -0.04170093 0.0
0001b0 00 00 00 00 00 00 00 00 00 00 00 00 00 00 00 00
       0.0 0.0 0.0 0.0
0001c0 37 4e 86 bd 00 00 00 00 00 00 00 00 13 dd 2a bd
       -0.06557887 0.0 0.0 -0.04171474
0001d0 36 a6 91 bd dd 8f 96 bd 00 00 00 00 00 00 00 00
       -0.0711178 -0.073516585 0.0 0.0
0001e0 00 00 00 00 1e 71 93 bd 00 00 00 00 55 53 74 bd
       0.0 -0.0719931 0.0 -0.059649784
0001f0 00 00 00 00 c0 cc 98 bd 88 ec b2 bd 00 00 00 00
       0.0 -0.07460928 -0.08736521 0.0
000200 00 00 00 00 05 3a be bc 00 00 00 00 00 00 00 00
       0.0 -0.023221025 0.0 0.0
000210 00 00 00 00 00 00 00 00 00 00 00 00 22 2b 94 bd
       0.0 0.0 0.0 -0.072347894
000220 00 00 00 00 00 00 00 00 6f 59 99 bd 00 00 00 00
       0.0 0.0 -0.07487761 0.0
000230 00 00 00 00 c6 e3 3e bd 79 65 63 3d a9 88 8f bd
       0.0 -0.04660394 0.055516694 -0.07008488
000240 00 00 00 00 00 00 00 00 24 65 9d bd 00 00 00 00
       0.0 0.0 -0.07685307 0.0
000250 00 00 00 00 2d 03 33 bd 00 00 00 00 00 00 00 00
       0.0 -0.0437042 0.0 0.0
000260 65 f4 f0 bc 7c 5f 93 bd 0b 55 8e bd 00 00 00 00
       -0.029413411 -0.071959466 -0.069498144 0.0
000270 26 68 87 bd f8 6a 8b bd 00 00 00 00 d9 86 a4 bd
       -0.066116616 -0.06807512 0.0 -0.08033533
000280 0a 73 e0 bc e2 f1 bb bc 00 00 00 00 00 00 00 00
       -0.027398605 -0.022942487 0.0 0.0
000290 b8 d0 38 bd 7e 32 8c bd 00 00 00 00 74 53 74 bd
       -0.045120925 -0.06845568 0.0 -0.0596499
0002a0 e7 2d a3 bd 00 00 00 00 00 00 00 00 68 e8 29 bd
       -0.079677396 0.0 0.0 -0.041481405
0002b0 04 ad 9f bd 00 00 00 00 a8 1b 90 bd 00 00 00 00
       -0.07796672 0.0 -0.07036525 0.0
0002c0 2b 0f 93 bd 1c 10 40 bd 00 00 00 00 00 00 00 00
       -0.071806274 -0.046890363 0.0 0.0
0002d0 92 8f 4f bd 00 00 00 00 48 e4 8a bd bc 37 2f bd
       -0.05067403 0.0 -0.067818224 -0.04277776
0002e0 54 89 8b bd 00 00 00 00 00 00 00 00 4c e5 92 bd
       -0.06813303 0.0 0.0 -0.07172641
0002f0 00 00 00 00 00 00 00 00 88 eb 87 bd 00 00 00 00
       0.0 0.0 -0.06636721 0.0
000300 00 00 00 00 00 00 00 00 00 00 00 00 c6 bd 31 bd
       0.0 0.0 0.0 -0.043393873
000310 7f 53 74 bd 00 00 00 00 71 40 94 bd 00 00 00 00
       -0.05964994 0.0 -0.07238854 0.0
000320 83 53 74 bd 5f 29 92 bd 23 45 89 bd 42 77 99 bd
       -0.059649955 -0.07136797 -0.0670264 -0.0749345
000330 1b 68 88 bd 5c 90 ae bc 00 00 00 00 c6 c4 40 bd
       -0.066604815 -0.02130907 0.0 -0.047062658
000340 00 00 00 00 00 00 00 00 00 00 00 00 00 00 00 00
       0.0 0.0 0.0 0.0
000350 da bc 97 bd 00 00 00 00 00 00 00 00 dc 44 90 bd
       -0.074090675 0.0 0.0 -0.07044384
000360 00 00 00 00 7d 53 74 bd 66 48 8b bd 00 00 00 00
       0.0 -0.059649933 -0.06800918 0.0
000370 07 04 30 bd 2f 6f 87 bd e7 4a 87 bd 00 00 00 00
       -0.04297259 -0.066130035 -0.06606083 0.0
000380 00 00 00 00 00 00 00 00 58 49 87 bd 00 00 00 00
       0.0 0.0 -0.06605786 0.0
000390 65 f3 a6 bd 78 dd 91 bd 00 00 00 00 00 00 00 00
       -0.081518926 -0.0712232 0.0 0.0
0003a0 00 00 00 00 5d 35 97 bd aa a4 92 bd b5 a2 8d bd
       0.0 -0.07383225 -0.071603134 -0.069157995
0003b0 80 53 74 bd 00 00 00 00 12 b8 ac bd 7e 98 99 bd
       -0.059649944 0.0 -0.08433546 -0.07499789
0003c0 00 00 00 00 3e 9e 90 bd 00 00 00 00 02 79 92 bd
       0.0 -0.07061432 0.0 -0.07151987
0003d0 ad 20 96 bd 94 cb 92 bd 00 00 00 00 00 00 00 00
       -0.07330451 -0.07167736 0.0 0.0
0003e0 00 00 00 00 d6 14 97 bd 38 8f a9 bd 00 00 00 00
       0.0 -0.07377021 -0.0827927 0.0
0003f0 c7 1d 44 bd 70 12 a0 bd 00 00 00 00 a5 0c ca bc
       -0.04787996 -0.07816017 0.0 -0.024664233

encoder.encoder.module_0.lin.weight f4 [512, 1]
000000 03 71 aa bc 32 99 ef 3b 5d 03 a5 bd aa f2 c1 bd
       -0.020805841 0.0073119635 -0.08057282 -0.094701126
000010 b3 ec 9f bd 3c c2 b8 3b 14 09 47 bd e0 45 27 bd
       -0.07808819 0.005638389 -0.048592642 -0.040838122
000020 a7 5f 95 bd 0f 17 56 bc 65 36 7d 3d 55 de 01 bd
       -0.07293635 -0.013067021 0.061819453 -0.031706173
000030 a0 c9 d6 bd 5c bd bc 3a a8 7d 73 bc 91 9a 1a ba
       -0.10487676 0.0014399695 -0.014861502 -0.0005897666
000040 22 03 0d bd ea 7e 46 bc 1e cc 2f bd 76 34 01 3c
       -0.034426816 -0.01211522 -0.04291927 0.007886043
000050 cd 22 4f 3d 93 b8 b7 bb df 0c e3 bc 1e 70 0e bd
       0.050570298 -0.0056067198 -0.027716098 -0.034774892
000060 3c 7d c8 bd ec 80 35 bd 53 97 f1 3c 68 25 84 bd
       -0.097895116 -0.044312403 0.029491102 -0.06452447
000070 0d 9c 36 bd 70 0a 48 bb 69 d5 f8 3b 1f 36 bb bd
       -0.044582415 -0.00305238 0.0075938 -0.09141182
000080 a0 c2 95 3c fd fc e3 3c fb d6 d3 3a 5e 70 d9 bd
       0.018281281 0.027830595 0.0016162092 -0.106171355
000090 8a b2 3e bd 87 56 67 3c 93 aa 3c bd 4a 6b c3 bd
       -0.046556987 0.014119751 -0.04606111 -0.09541948
0000a0 24 0e 7d bd 34 58 72 bd e3 a7 ea bc 37 69 fd ba
       -0.061781064 -0.05916615 -0.028644508 -0.0019333725
0000b0 70 8b 65 3d 77 6f 91 bd 04 02 ee bc f1 68 42 bd
       0.05604118 -0.07101338 -0.029053695 -0.04746336
0000c0 48 73 81 3c 0d c5 d7 bd e3 f2 c0 bd 16 7d 7d 3c
       0.01580204 -0.10535631 -0.09421327 0.015471717
0000d0 de cb 07 3c 3f 05 c2 bd f7 ed 61 bd 4f e2 ff bc
       0.008288352 -0.09473657 -0.05515858 -0.031235842
0000e0 04 fe a4 bd 27 2f 98 bd 77 e6 09 3d 32 dd aa bd
       -0.08056262 -0.074308686 0.033667054 -0.08342971
0000f0 1a 20 d9 bd d1 9a 14 bd 16 10 b9 bc 93 1e 4c bd
       -0.10601826 -0.036280457 -0.022590678 -0.049833845
000100 a8 af 62 bd 73 71 79 bd d2 9d c4 3c 5a 30 0c 3d
       -0.0553433 -0.06089921 0.024001036 0.0342258
000110 12 06 91 bd 1c 19 b5 bc 64 da 09 bd 4c 16 df bc
       -0.07081236 -0.0221067 -0.03365554 -0.027232312
000120 1e fa 17 bd 93 77 1f 3c 54 da af bd 62 53 d5 bd
       -0.037103765 0.009733099 -0.08586565 -0.10416295
000130 ed f1 bb bc 89 a8 0f bd eb 75 c5 ba 07 67 94 bd
       -0.022942508 -0.035072837 -0.001506505 -0.072462134
000140 a3 43 75 bc 8b a0 0d bc 54 97 87 3b 46 1f 1f 3c
       -0.014969739 -0.008644233 0.0041379128 0.009712046
000150 5c 22 d9 bb 0c 99 8b bd 2b 2f 83 bd f1 32 6e bd
       -0.0066264104 -0.06816301 -0.06405481 -0.05815405
000160 2d b2 46 bb a5 a0 e5 3b 97 70 a8 bc 23 52 2c bd
       -0.0030318603 0.0070076757 -0.0205615 -0.04207052
000170 f2 ed 92 3c f5 21 4e 3c 7e e4 37 bd df b3 59 bc
       0.017935727 0.012581338 -0.04489564 -0.0132875135
000180 be 0b 9b bd b3 b4 6e bd 05 be 10 bd 49 bb d5 bd
       -0.07570599 -0.058277797 -0.035337467 -0.104361124
000190 b3 03 fa ba 01 20 2e bd d0 7f f5 3a 92 a8 5b bd
       -0.0019074589 -0.04251099 0.0018730108 -0.053627558
0001a0 f7 2e 17 bd 64 f3 1f bc c7 b2 77 3c 28 82 97 bd
       -0.036910024 -0.009762619 0.015118307 -0.07397872
0001b0 a0 48 d3 bc 9f bb 56 bd 22 52 a9 bc 54 92 97 bd
       -0.025791466 -0.052425023 -0.020669047 -0.07400957
0001c0 e6 24 c6 bc d7 e2 61 bd 93 6c c7 bd 23 97 f9 bc
       -0.024187516 -0.055147972 -0.09737506 -0.030467575
0001d0 18 e4 02 3d 78 fd 05 bc 6f 8e 1f bc 3c 3f d3 bd
       0.03195581 -0.008178107 -0.009738549 -0.103147954
0001e0 03 55 cf bb 78 dc f5 bc 81 29 9f bd 67 61 62 bd
       -0.006327273 -0.030012354 -0.07771588 -0.05526867
0001f0 8d 23 a6 bd 4d 5c d7 bb cf 71 c1 bb 29 cf 44 bc
       -0.081122495 -0.0065722824 -0.0059034596 -0.012012281
000200 a5 c5 77 bd a8 87 d5 3d 7f ab da bd 6c 57 d7 bd
       -0.060491223 0.10426265 -0.106772415 -0.10514721
000210 7f 7a c3 bb fb 38 cd bd af 1e b4 b8 d8 90 11 bd
       -0.0059655304 -0.10020634 -8.588784e-05 -0.035538524
000220 97 5a f7 bb 70 b2 a8 bd 23 15 81 bc f0 e3 a7 bd
       -0.007548641 -0.08237159 -0.01575715 -0.081977725
000230 b7 82 77 bc 35 00 6e bc cf 4e 44 3e 40 89 53 ba
       -0.015106848 -0.014526417 0.19170688 -0.0008069463
000240 2d dc e1 bc 37 d7 c2 bd c4 2c a9 3c e4 66 79 bb
       -0.027570808 -0.09513705 0.020651229 -0.0038055712
000250 64 3f b8 bb a8 d8 b6 bc e7 98 59 bd b8 c3 c8 bd
       -0.005622791 -0.022320107 -0.053124335 -0.098029554
000260 ff f8 b8 3d a2 b4 6c 3b 71 63 87 bc 62 8c bd bd
       0.09031867 0.0036118408 -0.01652691 -0.092552915
000270 8d fb df bb e4 3f 70 bc 37 e9 82 ba 76 c1 1b 3c
       -0.006835407 -0.01466367 -0.0009987716 0.009506574
000280 fc 12 c9 3d 4c bf 7f 3d 38 d8 a4 bd 90 b4 d8 bd
       0.09818074 0.062438294 -0.08049053 -0.105813146
000290 55 fc 92 bc ba 5b fb bc 9f 2e 95 bd ef 33 4b bd
       -0.017942587 -0.030683387 -0.07284283 -0.049610075
0002a0 1b 3d 41 bc df 20 db bd 91 f7 c1 bd 38 43 ac bc
       -0.011794354 -0.10699629 -0.09471048 -0.021028146
0002b0 4b ef 5b bc 42 8d 77 bc 1e a8 91 3c 70 0d 90 bd
       -0.013423751 -0.015109362 0.01778036 -0.07033813
0002c0 38 3d 57 ba b6 0f 0a ba e0 09 04 bd 11 83 d6 bd
       -0.00082107214 -0.00052666233 -0.03223598 -0.10474218
0002d0 b0 ee 17 bc 02 94 8f bd d7 7c 76 bc a9 21 fc bc
       -0.009273216 -0.07010652 -0.015044413 -0.03077777
0002e0 16 e1 0a bd 52 63 d0 bd 7e 46 e9 bc 2c d2 f2 bc
       -0.033906065 -0.10175194 -0.028475996 -0.029641233
0002f0 d8 f1 b7 bd d1 b5 c1 bd cc d6 4a bc a4 ac 01 bd
       -0.08981675 -0.09458507 -0.012380313 -0.031658784
000300 9c 77 57 bc 0a 76 cc bb f2 e8 80 bc 15 8e ef bc
       -0.013151076 -0.0062396573 -0.015736077 -0.029242555
000310 05 b3 6e bd 50 65 76 bd a1 98 c5 3c d1 00 69 bb
       -0.058276195 -0.060155213 0.02412063 -0.0035553465
000320 f7 d6 4c bd de c3 88 bc 0c 21 1e bd f1 35 2b bc
       -0.050009694 -0.01669496 -0.038605735 -0.010449872
000330 80 aa 83 bc fe 20 8d 3d 3c 6e c5 bd 5e 72 9b bc
       -0.016072512 0.068910584 -0.09640166 -0.018975433
000340 4a 18 33 bd 2b 2c 85 bd 35 3c 8f bc 22 5a 1e bd
       -0.043724336 -0.06502565 -0.017484764 -0.038660176
000350 22 4b 4d bd fb 40 94 bd 3c de b8 bd db 40 77 bc
       -0.05012048 -0.072389565 -0.09026763 -0.015091146
000360 65 81 71 bc 84 aa 3b bd bb ca e0 bc 16 bb dd bc
       -0.014740323 -0.045816913 -0.02744042 -0.027066749
000370 69 63 2c bd ab 2d 9e 3c fc 18 3f bc 64 60 52 bd
       -0.042086992 0.019308886 -0.011663672 -0.051361457
000380 b5 92 68 bd 93 59 fa bb b6 fd 29 bd 4f bc 87 bd
       -0.056780536 -0.0076400726 -0.041501723 -0.06627714
000390 89 ae 7a bb f5 81 e6 ba 46 4d d9 bd df a2 fa bc
       -0.0038251004 -0.0017586338 -0.10610442 -0.030595241
0003a0 63 7b c5 bc 7d 54 5e 3c 3d 92 86 bc a5 49 85 3c
       -0.024106687 0.013569948 -0.016427154 0.016270468
0003b0 6c 7c 56 bd a2 10 c3 bd f4 31 03 bd 81 b2 c5 3c
       -0.05236475 -0.09524657 -0.03203006 0.024132969
0003c0 f5 34 50 bd 82 d1 29 3d e1 0d 4c bd 9c a6 87 bb
       -0.050831754 0.041459568 -0.049817923 -0.0041397344
0003d0 51 f7 35 bd 79 84 d9 3b 11 bd 57 bd b6 9a d4 bd
       -0.044425312 0.0066381064 -0.052670542 -0.10381071
0003e0 f3 d7 99 bd be 60 b9 bb de d9 1c 3c 81 be 87 bc
       -0.07511892 -0.0056572845 0.009573428 -0.016570332
0003f0 d0 b7 f6 3b 6b 0e 36 bd 4d b4 d7 bd 3e 62 a4 3d
       0.0075292364 -0.044447344 -0.105324365 0.08026551

encoder.encoder.module_2.bias f4 [256]
000000 c2 03 4f bd d4 de 96 3d ed 44 50 bd d0 cb 21 bd
       -0.050540693 0.0736672 -0.050846983 -0.03950101
000010 38 db 4f bc c2 17 01 3d 33 ad 72 bd d3 6f 9e 3c
       -0.012686543 0.031516798 -0.059247207 0.019340431
000020 01 ac a8 3c d2 4f 56 bd d1 50 82 bc 72 cd 7a bd
       0.02058983 -0.052322216 -0.015907677 -0.061231084
000030 7a 04 f1 bc 1e ea 01 bd 6f 1d 10 3d bb 1d 6c 3d
       -0.02942108 -0.031717412 0.03518432 0.05764554
000040 65 be 76 bb 25 21 47 3d 0e 45 14 3d e4 e1 c3 bc
       -0.0037650105 0.048615593 0.03619867 -0.023911424
000050 c7 38 0e bd 89 9f d7 3c b5 5b 62 bd 14 c9 dd bc
       -0.034722116 0.02632119 -0.05526324 -0.02707342
000060 ce d2 6e 3d a5 ee d5 3c f6 08 63 3c 60 af 24 bd
       0.058306508 0.026114771 0.013857117 -0.040206313
000070 29 4a 81 3d cc 09 59 3b 4c b7 88 bc 9c 1e 47 3d
       0.06312973 0.0033117412 -0.016688965 0.048613176
000080 4f 77 87 ba a9 50 11 3c dd fb 57 3d 90 2a 4c ba
       -0.0010335239 0.008869329 0.05273043 -0.0007788325
000090 5b 14 43 3d 71 f5 10 3d ba 53 35 3d b8 62 c9 bc
       0.047626834 0.03539032 0.0442693 -0.024583206
0000a0 03 9e 55 3d 39 60 52 bd 00 d7 53 3b d2 bb 2e 3c
       0.052152645 -0.051361296 0.0032324195 0.010664897
0000b0 f2 1c 04 bd f0 f7 a7 3c c0 21 db bc af 04 fc 3b
       -0.032254167 0.020503968 -0.026749492 0.007690988
0000c0 37 2d 38 3c 2c 84 b7 bb 33 a3 46 bc a2 60 45 bd
       0.011241249 -0.005600473 -0.012123871 -0.04818786
0000d0 35 e2 5a 3d b7 d6 d9 3c d1 75 c8 bc 19 7b 8a 3d
       0.053438384 0.026591642 -0.024470242 0.0676176
0000e0 39 63 83 3c 8b 3e 0c 3b cd 4c 24 3d 94 35 c6 3c
       0.016038524 0.0021399583 0.040112305 0.02419547
0000f0 67 5c 1a bd 9a 48 6c 3d be 38 91 3a c2 7a 51 bd
       -0.037685778 0.057686426 0.0011079533 -0.05114246
000100 c9 fd 72 bd f9 e3 c0 3c 08 da 89 3c d8 6a 48 bd
       -0.05932406 0.023546206 0.016827598 -0.04893002
000110 18 3c 94 bd 88 09 59 bc 22 16 a7 3c 12 bf 34 3d
       -0.072380245 -0.013246901 0.020396296 0.04412753
000120 ff 7e 8f bd 05 b5 2d bd 27 54 32 bd e8 2d 49 bc
       -0.070066445 -0.04240896 -0.043537285 -0.012279011
000130 8e 01 2a bd 0a 75 b2 3c 91 1a bd 3c 32 7e 78 bd
       -0.04150539 0.021784324 0.023083957 -0.060667224
000140 b4 9b e2 3c bc 6f 97 bb 76 8a 07 3c 98 1b 41 3d
       0.027662136 -0.004621474 0.008272758 0.047145456
000150 ea 6b 83 bd 6c 56 19 3d 8c ab dc 3c cf a2 8f 3b
       -0.06417067 0.037435934 0.026937269 0.004383422
000160 5f c8 5f 3c 45 81 25 bd 3f d6 c5 bb 30 c0 91 3d
       0.013658612 -0.040406484 -0.006037503 0.07116735
000170 85 eb dc 3c b3 91 23 3c 1c 89 87 bd 05 68 03 3d
       0.026967773 0.009983468 -0.066179484 0.032081623
000180 c8 36 89 3d 30 1f 10 3d fc e4 63 3d 65 3c da bc
       0.06699902 0.035185993 0.0556383 -0.026640126
000190 e9 b1 f6 bc 2a be 05 3d 33 d6 a1 bc 7a 46 01 ba
       -0.030114131 0.032652058 -0.019755458 -0.00049314613
0001a0 4e 38 a2 bc 4f 7f 3f bd ad f9 cb 3c d5 1a 67 3c
       -0.019802239 -0.04675227 0.024899328 0.014105518
0001b0 64 1d 89 3d c0 74 5c 3d 80 f2 3a 3b 88 33 04 bd
       0.06695059 0.05382228 0.002852589 -0.032275707
0001c0 4a 14 99 3c 76 9a 87 bd 5e 26 e7 3c 57 49 16 3c
       0.018686432 -0.06621258 0.028216537 0.009172759
0001d0 6e f0 07 3d 7b 69 f1 3c 2f 36 0d bd bf d1 6f bd
       0.033188276 0.029469242 -0.0344755 -0.05854964
0001e0 e7 7a 07 bd ea 31 84 3d 12 be 71 3d 2b 29 6d 3c
       -0.033076193 0.06454833 0.059019156 0.014475147
0001f0 a6 da 9c 3c 0a 73 4e 3d b7 c3 08 bd a2 e2 11 bd
       0.019147228 0.05040268 -0.033389773 -0.035616525
000200 23 fb df 3c fc bf 76 3c b0 8f e0 3c 6e ba f5 bc
       0.027341431 0.015060421 0.027412266 -0.029996123
000210 b7 fe 32 bc 35 cc e5 3c 2f eb 2e 3d 74 e2 03 bd
       -0.010924987 0.028051475 0.042704757 -0.032198384
000220 c9 17 17 3c 00 9a 57 bd c4 8c 9e bc 53 0f 35 3d
       0.009221979 -0.0526371 -0.019354232 0.044204067
000230 f2 a0 1f 3d 32 9b 1d 3d 5f 22 20 bd 41 f2 9d 3c
       0.03897185 0.038478084 -0.03909528 0.019280555
000240 d1 41 8c 3d 1c 62 b6 3c ab 12 58 3c e4 f5 b8 39
       0.06848491 0.02226358 0.013188045 0.00035278418
000250 de a4 95 bc 08 ab 2e bd d7 47 00 bd 9d fa 02 bd
       -0.018267091 -0.042643577 -0.03131851 -0.031977285
000260 6f b9 1d bc b6 31 bb 3c a9 28 60 3d ab 73 1f 3d
       -0.00962673 0.022850852 0.054726277 0.03892867
000270 cf 4a f1 3c 62 a5 90 bd 5f d0 ff 3c fd dc 1d bc
       0.029454617 -0.07062794 0.031227289 -0.009635207
000280 3e 0d 29 3d 89 a6 3e bd 0c 52 7c bd 92 02 a5 3c
       0.041272394 -0.04654554 -0.061601683 0.020142827
000290 f3 5f d9 bc 4e 12 24 bc 07 04 37 3d 8b c5 3b bd
       -0.02653501 -0.01001413 0.044681575 -0.04584269
0002a0 14 a4 7f 3d b8 3a 6c 3d 24 61 36 3d e6 df 0d bd
       0.062412336 0.057673186 0.044526234 -0.034637354
0002b0 74 59 52 3c ac 2f 07 3d 90 39 13 bd 39 83 34 bd
       0.01283871 0.033004448 -0.035943568 -0.044070456
0002c0 14 e9 eb 3c e9 86 2c 3d a4 ce 7a bd de 10 86 3c
       0.028797664 0.042120848 -0.061232224 0.016365465
0002d0 a7 ee d3 3c 9a 1c 9d 3b 37 e7 35 3c 9e 2d be 3c
       0.025870634 0.0047946693 0.011102489 0.023215111
0002e0 32 4e e2 3c 71 bb 06 3d e3 e2 8a bc da bc 89 ba
       0.027625177 0.0328936 -0.016953891 -0.0010508553
0002f0 58 8b 8f bd e2 70 5a 3d 49 16 18 3d ae f7 2d 3d
       -0.070089996 0.05333031 0.037130628 0.042472534
000300 6c 4c 14 bd 4f 99 d3 bc f9 21 3a 3d a6 2a 5c bd
       -0.036205694 -0.02582994 0.045442555 -0.05375161
000310 bd ba 83 bc ba d0 c6 3c a3 08 ba bc 2f cb ba bc
       -0.016080255 0.02426945 -0.022709196 -0.022801964
000320 77 2f 6a 3d 04 9e db 3c d8 db 99 3c cb 68 35 3d
       0.057174172 0.026808746 0.018781587 0.04428939
000330 a5 fb 13 3d ed d1 31 3d e2 86 ec bc 78 b0 98 3c
       0.03612866 0.04341309 -0.02887291 0.018638834
000340 93 6d a2 bc 04 14 70 bd f7 34 a7 3c d1 a3 3e bb
       -0.01982764 -0.05861284 0.020410998 -0.0029089341
000350 d8 57 8a bd dc 07 74 3d af 7b 49 3c a9 ff 58 3d
       -0.06755036 0.059577808 0.012297555 0.05297819
000360 55 0f 8c 3c 25 87 cf bc 1b 3c b0 bc dc 96 4e bd
       0.017097155 -0.025332997 -0.021513036 -0.05043684
000370 93 c3 23 bd 59 6d 1c bd 84 44 8c bb 71 d3 3f 3c
       -0.039981436 -0.03819022 -0.0042806286 0.011708126
000380 ef 6c d6 3c 15 eb c3 bc f6 3b de 3c 96 cd 42 bd
       0.02617499 -0.023915807 0.027128201 -0.047559343
000390 94 7e 1d bd e4 21 d8 bc 23 67 03 3d 46 0e 59 bd
       -0.038450792 -0.026383348 0.03208078 -0.052992128
0003a0 a5 ca 66 bc e0 8c 2c bd 6a 5f 80 3c 0c d5 ff 3b
       -0.0140864 -0.042126536 0.015670497 0.0078073796
0003b0 85 db 8d 3d 5d f4 2f bd 88 55 25 3d e1 e0 98 bc
       0.06926636 -0.042957652 0.040364772 -0.018661918
0003c0 79 37 ba 3c 82 1d 18 3c 12 c8 95 bd b9 80 22 bd
       0.02273153 0.009284379 -0.07313551 -0.03967354
0003d0 8f 4f 0a 3d 27 e5 9d bc 9b 12 09 3d 6e 84 1c bd
       0.03376728 -0.019274307 0.03346501 -0.038212232
0003e0 8d 65 d1 bc b7 8f 93 bc ea d9 44 bd d3 86 4c bd
       -0.025561118 -0.018012865 -0.04805938 -0.049933266
0003f0 c9 ff 1f 3d 18 a6 44 3c c3 95 23 bd ea 92 4a 3d
       0.039062295 0.01200249 -0.039937746 0.049456514

encoder.encoder.module_2.lin.weight f4 [256, 512]
000000 f3 af 24 bd 24 27 91 3c 02 0d 6d bc 9e 81 cf bc
       -0.04020686 0.017718859 -0.014468433 -0.025330361
000010 3b 26 3b bd 1c 9b a2 3d ab a1 05 bc 24 83 d7 3d
       -0.045690756 0.07939741 -0.00815622 0.1052306
000020 dc a5 55 3d 26 25 45 3d ca 48 d1 3c c1 e6 8e bd
       0.05216013 0.04813113 0.025547404 -0.069776066
000030 87 39 9e 3d fd 6f 49 bd 77 89 05 3d cc fa c7 bb
       0.07725816 -0.049179066 0.0326018 -0.0061028954
000040 d6 8d 7b bd d2 92 2f bd 8e a7 6b bd d0 de a0 3d
       -0.061414562 -0.042864628 -0.05753284 0.07854998
000050 11 03 59 3d 19 92 00 3c 51 b9 f9 3c 15 94 8e 3d
       0.05298144 0.007847332 0.030483874 0.06961838
000060 c2 25 75 bd 6a d8 95 3d 14 74 6d ba 4f c8 ec bc
       -0.05985046 0.07316668 -0.00090581295 -0.028904108
000070 d1 96 8a bc 97 8e 14 3d 79 9a 70 3d ff 27 a0 3b
       -0.016917618 0.036268797 0.058741067 0.0048875804
000080 ad 6a df 3d ad a8 80 3d fd 1d 01 bd e6 2a c4 bb
       0.10909019 0.06282172 -0.03152274 -0.005986559
000090 fe 56 7b bd ff ad 4f ba 69 53 88 3c 8d 72 24 3d
       -0.06136226 -0.0007922351 0.016641336 0.040148307
0000a0 12 1d b0 bc dd 62 5f 3d 55 7c fa bc fc db d5 3c
       -0.021498237 0.054537643 -0.030576864 0.026105873
0000b0 e2 05 07 3d 04 b5 9c bd b3 5c 9b 3d a5 4b 67 3d
       0.032964595 -0.076517135 0.0758604 0.056468625
0000c0 c4 30 00 3e fc b4 9a 3c 95 a1 3e 3d f6 8a b9 3d
       0.12518603 0.018885128 0.046540815 0.09059708
0000d0 61 94 42 bd b7 57 d4 bb 35 35 82 bd 6b 92 e7 3a
       -0.047504786 -0.006480183 -0.06357805 0.0017667537
0000e0 64 59 88 3d e7 d1 9c bd 70 ed 0c 3d ec f2 84 3d
       0.06657675 -0.07657223 0.034406126 0.06491646
0000f0 e6 f2 6a 3c 71 35 ed 3d 38 91 8c 3c 98 f1 c7 bd
       0.014340138 0.11582459 0.01715909 -0.09762877
000100 e1 7c 86 bd 4a 07 3a bc 80 c2 f4 bb e7 45 7c 3d
       -0.065667875 -0.011354277 -0.0074694753 0.0615901
000110 87 a4 5c 3d de fd c1 3b a5 f1 a6 bd 4e 02 71 3d
       0.053867843 0.005920156 -0.08151559 0.05884009
000120 ef c5 24 3d c2 63 0e 3b 60 07 64 bb f3 18 b9 bc
       0.040227827 0.002172694 -0.0034794435 -0.022594905
000130 74 18 9b bd ec de 85 3d b4 f9 64 bc 53 64 6b 3d
       -0.075730234 0.065366596 -0.0139755495 0.057468724
000140 3c dc 86 bd 00 f9 4a bd da 5a 48 3d 32 61 a3 3c
       -0.06584975 -0.04955387 0.048914768 0.019943807
000150 0c c2 a5 bd 26 b1 8e bd ca 12 75 bd b0 13 03 bd
       -0.08093652 -0.06967382 -0.05983237 -0.032001197
000160 6f a8 fe 3d 4c 57 68 3b 12 4a 63 3d d0 2b 81 3c
       0.1243447 0.0035452424 0.05549056 0.015767962
000170 e3 41 af bc e1 25 ab bb a3 86 f8 bb 02 27 92 bc
       -0.021393722 -0.0052230214 -0.0075844093 -0.017840866
000180 a3 09 9b 3c 56 d7 5b 3a 72 5f 19 bd e9 23 b0 bc
       0.018925494 0.00083862746 -0.03744454 -0.021501498
000190 b6 7b a3 bc 70 b0 d0 3c ad 13 bd 3b 5f 6f ac bd
       -0.01995645 0.025474757 0.005770168 -0.0841968
0001a0 bf 97 25 3d 9e d1 85 3d a3 bd c8 3d 65 a2 52 bd
       0.04042792 0.06534122 0.09801795 -0.051424403
0001b0 e5 f6 58 bd 7d 32 68 3c a3 9f 23 3c c9 9d 84 3b
       -0.052969832 0.014172194 0.009986791 0.00404713
0001c0 e1 c7 64 3d e0 e3 b1 3d 83 b0 50 bd 57 fa e0 bb
       0.055854682 0.08686042 -0.050949585 -0.0068657803
0001d0 45 a6 e1 3d c6 ac 72 3b af 0f b3 bd 89 05 76 bd
       0.110180415 0.003702925 -0.08743226 -0.060063872
0001e0 2f 62 a6 bd 0d 3a 80 bc cf 93 24 3c 48 fe df bd
       -0.08124196 -0.01565268 0.010045006 -0.10937172
0001f0 5e 82 8b bd f0 25 3d bd 04 ec 83 3d 39 f3 c6 3b
       -0.06811975 -0.04617876 0.06441501 0.006071475
000200 b7 96 82 3d 12 23 c2 3c 5d 1f 79 bd 25 6d 42 bd
       0.06376403 0.023698363 -0.060820926 -0.04746737
000210 c5 7f 9e 3d f2 dd 52 3c 3c 07 51 3c 6d e9 d9 bc
       0.07739214 0.012870299 0.012758072 -0.026600564
000220 a9 be 81 3d ae 4c 00 3d 21 a4 5c 3d 1c 49 69 3d
       0.06335194 0.031323127 0.053867463 0.05695449
000230 d6 07 50 bc 8f ed 19 3d 7f ac ff 3d 9e b7 55 3d
       -0.012697181 0.03758007 0.12484073 0.052177064
000240 3c b3 32 3d 88 5f 81 bc 33 90 bc 3d 06 e6 86 3d
       0.043627962 -0.015792623 0.09207191 0.06586842
000250 28 8f 33 bc 6e f9 31 bd 1b fb 21 bd 1c 7a 3d ba
       -0.010959424 -0.043450765 -0.039546113 -0.00072279735
000260 76 0a 53 3d 77 7c ef 3b 29 20 e7 bc e9 fe 5f 3d
       0.05152365 0.0073085385 -0.028213577 0.05468646
000270 c8 d7 e8 3d 6e bb 97 3d 6f bc a8 3d 2c 42 c3 3d
       0.11369282 0.07408796 0.08239066 0.09534106
000280 3c f9 d6 3d cc 9e 35 3d 95 ee 9b bd f3 1e ae bb
       0.104967564 0.044340894 -0.07613865 -0.005313748
000290 64 35 a3 3d 8f c0 c7 3d d9 bf 2a 3d fe e3 aa bb
       0.07969168 0.097535245 0.041686866 -0.005215167
0002a0 30 8c 84 3d 02 6c be 3c d2 1a 1d bd 36 d0 dd 3d
       0.06472051 0.023244862 -0.038355656 0.10830729
0002b0 0f eb b8 3c 9b 45 1e 3d 14 f8 03 bd 5d 35 b2 3d
       0.022573022 0.0386406 -0.032219008 0.087015845
0002c0 49 c9 94 bc 09 83 70 3d c8 84 72 3d 9f 4b 8e bd
       -0.018162386 0.058718715 0.05920866 -0.06948017
0002d0 1a 94 e6 3b 9c 42 16 b8 0e 07 c5 3c 2e f8 df bc
       0.007036698 -3.582482e-05 0.024051215 -0.027340021
0002e0 9b 67 9c 3d 50 c4 26 bd 99 20 77 bd f5 03 79 3d
       0.07636949 -0.040714562 -0.060333822 0.06079479
0002f0 ff 9e a8 bd e7 85 b2 bb a1 c2 e9 3d 75 a6 5f 3d
       -0.08233451 -0.0054480913 0.11414076 0.054602105
000300 fa b7 1a 3d 8b d6 a8 bd af 8a 78 bd 44 c1 b9 3d
       0.03777311 -0.08244046 -0.060679134 0.090700656
000310 58 c1 0b be 78 e4 62 bd af b1 35 bd 27 49 48 3d
       -0.13647974 -0.055393666 -0.044358905 0.04889789
000320 51 2e 63 3c 5d fc aa 3d 8d 73 9d 3d 00 2b f7 3d
       0.013866023 0.08348916 0.07688055 0.120687485
000330 a9 1b 11 bd 0a fa 36 3c 52 3d 0f 3c 6e 98 a0 3d
       -0.03542677 0.011168012 0.008742647 0.07841574
000340 d0 2b 10 3d 9e 95 7d 3d ad 3b 58 3c 10 6f 87 3d
       0.035198033 0.061910264 0.013197822 0.0661298
000350 4e 3a b6 3d 27 a0 ab 3d 13 88 1e bd 6f f8 7d 3d
       0.088978395 0.08380156 -0.03870399 0.062004503
000360 e2 31 05 bc 5d db 55 bd 4d e8 8b 3d 69 ed ae bd
       -0.008129569 -0.052211154 0.06831417 -0.08541376
000370 c8 10 ab 3b 6d 69 bf 3d 2b 5f b1 3d 5a 30 b0 bd
       0.0052205063 0.0934628 0.0866073 -0.08602972
000380 7f 71 1f 3d 88 db af 3d b6 5e 8c 3d 4b d9 2a bc
       0.038926598 0.08586794 0.06854002 -0.010427783
000390 c5 ee 00 3e 9c a9 bd 3d e8 ba 9a bc f1 b4 11 bb
       0.12591083 0.09260866 -0.018887952 -0.0022233094
0003a0 ba 60 80 3d f0 3d fe 3c 54 cc b9 3d f5 2d 9a bb
       0.06268449 0.031035393 0.090721756 -0.0047051855
0003b0 c7 8d 05 be 2e f0 de bc 32 34 48 3d da e1 88 3d
       -0.13042365 -0.027214136 0.048877902 0.06683703
0003c0 65 f4 3d bc f1 1c fd 3d 01 a0 86 bd b1 9d 14 3d
       -0.011593913 0.12359036 -0.06573487 0.0362832
0003d0 ea 89 e9 bc 43 f2 4a bd 1f d8 c8 bc e8 31 70 bd
       -0.028508145 -0.049547445 -0.024517117 -0.058641344
0003e0 3a f4 05 bd b7 88 e5 3d dc 05 d9 3d 10 79 85 bd
       -0.032703616 0.11207717 0.10596821 -0.065172315
0003f0 8f c6 2b 3d fa 48 ca 3d fa 7e 29 3d 46 3f fb 3c
       0.041937407 0.098772004 0.04138086 0.03066982
